GABS/outputfiles/checkpoint.pth (torch, 903700 bytes, 90 tensors)

dense_block.block.0.norm.weight f4 [7]
0.53552467 0.36835015 0.29635295 0.73203176 0.642297 0.2586 0.080722265
00000000: 2518 093f 6498 bc3e 93bb 973e 6f66 3b3f
00000010: 946d 243f 3867 843e b751 a53d

dense_block.block.0.norm.bias f4 [7]
-0.002501191 -0.053919137 0.026652597 0.013658943 0.36582705 0.046404257 0.010685069
00000000: 06eb 23bb 50da 5cbd 8c56 da3c c2c9 5f3c
00000010: af4d bb3e 6412 3e3d 6d10 2f3c

dense_block.block.0.fc.weight f4 [4, 7]
0.23768348 -0.04978197 -0.06340281 0.21447796 -0.28795514 0.13008983 -0.0029753153 0.03971736
-0.06888349 -0.12715371 -0.023211187 4.8540478e-05 -0.03001877 0.010593009 -0.035984576 -0.0853662
-0.023957549 -0.055214442 0.5290833 0.15436031 0.00011299221 -0.09683369 -0.08945857 -0.15902
-0.21656393 0.14749594 0.10744218 0.07783029
00000000: 4c63 733e 2ee8 4bbd 55d9 81bd 1ca0 5b3e
00000010: db6e 93be 4536 053e 82fd 42bb acae 223d
00000020: ca12 8dbd 9534 02be 6325 bebc f197 4b38
00000030: ece9 f5bc 4d8e 2d3c 9064 13bd 79d4 aebd
00000040: 9f42 c4bc 8a28 62bd 0172 073f a110 1e3e
00000050: 3bf6 ec38 be50 c6bd 0e36 b7bd 24d6 22be
00000060: efc2 5dbe 2d09 173e a50a dc3d 7d65 9f3d

dense_block.block.0.fc.bias f4 [4]
-0.26896572 0.027129378 0.04706896 0.21326637
00000000: e0b5 89be 6e3e de3c 62cb 403d 8062 5a3e

dense_block.block.1.norm.weight f4 [11]
0.4989022 0.4193372 0.38273907 0.47015068 0.09268608 0.050391577 0.043947067 0.06537138
0.55101913 0.1971083 0.10653171
00000000: 1c70 ff3e 5eb3 d63e 60f6 c33e 97b7 f03e
00000010: 33d2 bd3d 6667 4e3d d701 343d 6ee1 853d
00000020: 970f 0d3f c2d6 493e 4c2d da3d

dense_block.block.1.norm.bias f4 [11]
0.00324729 -0.04046803 0.018908866 0.012781612 0.017992537 -0.00019056654 2.6521218e-05 -0.0026683907
-0.02567731 0.004412353 -0.00304621
00000000: 7cd0 543b cec1 25bd c4e6 9a3c f769 513c
00000010: 1665 933c d1d2 47b9 e279 de37 2be0 2ebb
00000020: 3959 d2bc 8095 903b eca2 47bb

dense_block.block.1.fc.weight f4 [4, 11]
0.17275715 -0.1325832 -0.19350776 -0.18621701 0.03757063 -0.011152058 0.0038643775 -0.05036739
0.21329656 -0.076014005 0.08464456 -0.031717695 -0.09111247 0.08615151 -0.19322664 0.060743287
-0.0029755784 0.00798747 -4.8649387e-11 -0.020023065 0.023092844 -0.019654967 0.20440288 0.1353572
0.004704182 -0.12403453 0.036621757 0.0021321487 3.6465299e-06 0.036987156 0.10549601 0.119069844
-0.020923207 -0.038824085 -0.07794144 -0.023704665 -0.11786386 -0.00023538 0.015478508 -0.00037734074
0.011325714 -0.0025231822 0.07861177 0.020727174
00000000: 40e7 303e e4c3 07be e626 46be acaf 3ebe
00000010: a9e3 193d 1fb7 36bc 7f41 7d3b 094e 4ebd
00000020: 6a6a 5a3e 3bad 9bbd 215a ad3d 6aea 01bd
00000030: 2d99 babd 3470 b03d 34dd 45be f4cd 783d
00000040: ec01 43bb e1dd 023c 57f6 55ae 6907 a4bc
00000050: 342d bd3c 7403 a1bc fd4e 513e 149b 0a3e
00000060: 8a25 9a3b d105 febd b200 163d 85bb 0b3b
00000070: e8b6 7436 d87f 173d 4b0e d83d e4da f33d
00000080: 2567 abbc 0106 1fbd c39f 9fbd 4930 c2bc
00000090: 9c62 f1bd 56d0 76b9 9199 7d3c d1d5 c5b9
000000a0: 7d8f 393c f95b 25bb 35ff a03d 09cc a93c

dense_block.block.1.fc.bias f4 [4]
0.059619218 0.06147603 -0.20933779 0.036394805
00000000: 4833 743d 4ace 7b3d a55c 56be b812 153d

shared_layer.input_projection.weight f4 [128, 15]
-2.799522e-15 -2.5743722e-13 4.100107e-08 4.988262e-12 -8.7544175e-14 3.8690463e-17 -1.0948542e-12 1.7899053e-16
1.0536195e-15 -2.1266629e-11 1.3650383e-19 6.305325e-15 -1.7127034e-11 -7.099554e-16 2.4228037e-14 -0.07135004
0.06605463 0.07018557 -0.036945853 0.27703702 0.010800158 0.004284679 -0.0013011758 0.042520206
0.12320269 0.03555076 0.065400384 -0.00017864066 0.008633321 0.0003218501 -0.037346993 0.07813574
0.1149098 -0.16268489 0.17665437 0.01259326 0.044289775 0.007588955 -0.062009692 0.04370667
0.05374977 -0.0013754424 0.002466394 -0.005921415 -0.00021353769 -0.005666632 -0.04576237 0.019170852
-0.0015522718 0.038217157 -0.017912937 -0.003951992 -0.0038342215 0.012199569 0.019699762 -0.008313349
0.011595977 -0.0050445013 0.0020018457 -0.00018847869 -0.029604947 -0.011043642 -0.046605207 -0.022506252
-0.024663402 -0.007788328 -0.02919346 -0.0030633665 0.046826333 0.07174457 -0.0074184146 0.098543294
0.010165674 -0.009297104 0.0067312527 -0.039169237 -0.14452703 -0.10813245 0.09701645 -0.3882961
-0.014083066 0.08601363 0.010494758 0.07895011 -0.10121751 0.007181546 -0.054903623 -0.002546948
-0.054498304 0.009052488 -0.0032683294 0.09387328 0.060720872 0.10826562 0.2821178 0.035336103
0.006050039 -0.006039017 -0.00032012686 0.0997118 0.035502266 0.007014284 0.0015999246 0.0064571807
0.0034769992 0.057780657 -0.031488504 -0.07101018 0.060984857 -0.06698748 0.040460814 0.00067739515
0.006997859 8.8780296e-05 -0.025459232 -0.015614115 -0.006381912 0.0031778293 0.0033783237 -0.00022864358
0.061590057 -0.05282827 0.13359089 -0.06587302 -0.03385393 0.018052023 0.010980983 0.00014610149
0.0067350813 -0.012107257 0.0015820676 0.003933389 0.0090175 0.007977095 -1.4448067e-07 0.058777045
0.09257629 -0.044014867 -0.030204104 -0.021956181 -0.005942615 0.0042679845 -0.0036551321 -0.022291798
-0.028663099 -0.0015843284 -0.022606455 0.0006732204 0.0026465957 -0.00020087467 -0.044367105 -0.16284874
0.055636145 -0.10858891 -0.2852059 -0.02876094 -0.016798658 0.05394145 0.06291987 -0.06822421
-0.02747325 0.032751866 -0.0039836084 0.03263285 -0.0076261843 -0.010631619 -0.0036922053 -0.0050508897
-0.006050267 -0.00024147658 -2.7076382e-07 2.3784565e-07 -2.4866118e-05 -0.00013226237 6.845805e-06 1.3957359e-06
0.027410334 -3.4664806e-11 -0.00063728995 -8.796344e-11 0.060415197 0.08341157 -0.0479984 0.1645319
0.3475902 -0.35911936 -0.0925146 -0.1684236 0.0492289 -0.15046781 -0.0647327 -0.008052517
-0.0033975462 0.020880481 -0.016584622 0.014121729 0.021373548 -0.050957 0.023684619 -0.03572423
0.0047136857 -0.021509156 0.011607251 0.001338536 -0.015092827 -0.010282082 0.0015563411 0.00054847286
-0.00056822045 -0.00029220438 0.02873555 -0.13158329 0.07354829 0.11760777 0.119434305 -0.08732221
-0.09220445 -0.0011590656 -0.022753753 -0.015628066 -0.041775532 -0.008962496 -0.023960175 -0.00054732885
-1.4997461e-07 0.031907097 -0.0071294 0.0917495 0.03359575 0.0042886864 0.014832385 0.023797743
-0.0002737464 0.0018536759 -0.014929596 -0.0029645076 -0.0006261242 -0.004441663 0.0003465512 -4.39426e-09
7.781196e-15 -5.771795e-08 -9.263749e-12 -2.5248344e-08 -2.0969586e-14 2.0229234e-14 2.8032852e-16 -3.2057237e-13
1.9429989e-11 3.8258025e-12 -2.6062237e-09 -6.8714576e-09 -1.6597702e-11 -1.238769e-12 2.445497e-13 1.2751836e-10
00000000: 11ba 49a7 9dec 90aa 2719 3033 4582 af2c
00000010: c821 c5a9 a36d 3224 4816 9aab ae5c 4e25
00000020: b3d7 9726 3110 bbad c027 2120 5c2c e327
00000030: a7a6 96ad 76a1 4ca6 0d3a da28 f81f 92bd
00000040: a647 873d 74bd 8f3d 8954 17bd ccd7 8d3e
00000050: 25f3 303c 7e66 8c3b 378c aaba ab29 2e3d
00000060: b151 fc3d ac9d 113d a3f0 853d 7d51 3bb9
00000070: c672 0d3c fdbd a839 29f9 18bd a105 a03d
00000080: d455 eb3d de96 26be e2e4 343e f653 4e3c
00000090: 3269 353d c5ac f83b e0fd 7dbd c405 333d
000000a0: b828 5c3d 3048 b4ba 3aa3 213b 6e08 c2bb
000000b0: 16e9 5fb9 28af b9bb 5371 3bbd 310c 9d3c
000000c0: 9975 cbba 9889 1c3d 27be 92bc b67f 81bb
000000d0: 9047 7bbb b3e0 473c 6561 a13c b734 08bc
000000e0: 0dfd 3d3c 584c a5bb 6631 033b 5da2 45b9
000000f0: 1386 f2bc 64f0 34bc 1ae5 3ebd 085f b8bc
00000100: e70a cabc 3b35 ffbb 1f27 efbc c3c2 48bb
00000110: f8cc 3f3d d1ee 923d 2c16 f3bb 11d1 c93d
00000120: ed8d 263c e152 18bc d791 dc3b ec6f 20bd
00000130: e5fe 13be 8c74 ddbd 8fb0 c63d bfce c6be
00000140: a9bc 66bc ea27 b03d 35f2 2b3c 98b0 a13d
00000150: 204b cfbd 2d53 eb3b 9fe2 60bd b2ea 26bb
00000160: 9d39 5fbd e350 143c 7831 56bb a240 c03d
00000170: 73b6 783d 5eba dd3d bf71 903e 97bc 103d
00000180: 683f c63b f2e2 c5bb b3d6 a7b9 b335 cc3d
00000190: d36a 113d 14d8 e53b 90b4 d13a c296 d33b
000001a0: 5ede 633b 69ab 6c3d 17fa 00bd c96d 91bd
000001b0: 42cb 793d bb30 89bd 3dba 253d 3893 313a
000001c0: 4c4e e53b 8f2f ba38 e18f d0bc 58d2 7fbc
000001d0: 5c1f d1bb 2143 503b de66 5d3b 0bc0 6fb9
000001e0: db45 7c3d 7562 58bd 0dcc 083e 6fe8 86bd
000001f0: 6baa 0abd d6e1 933c 95e9 333c d232 1939
00000200: f5b1 dc3b 845d 46bc 615d cf3a a9e3 803b
00000210: 23be 133c 5db2 023c 8b22 1bb4 33c0 703d
00000220: a398 bd3d ef48 34bd 996e f7bc 73dd b3bc
00000230: 45ba c2bb 73da 8b3b f18a 6fbb 4a9d b6bc
00000240: e0ce eabc 3da9 cfba 2c31 b9bc 0e7b 303a
00000250: 8272 2d3b e2a1 52b9 48ba 35bd d2c1 26be
00000260: bae2 633d dd63 debd 8206 92be 109c ebbc
00000270: 579d 89bc b6f1 5c3d 22dc 803d 22b9 8bbd
00000280: 950f e1bc d226 063d ee88 82bb 06aa 053d
00000290: 12e5 f9bb 3e30 2ebc edf8 71bb ef81 a5bb
000002a0: 5141 c6bb e034 7db9 7f5d 91b4 8462 7f34
000002b0: 9597 d0b7 e9af 0ab9 04b5 e536 1f55 bb35
000002c0: a38b e03c 1a75 18ae ce0f 27ba 046f c1ae
000002d0: ed75 773d afd3 aa3d f899 44bd 0d7b 283e
000002e0: 58f7 b13e 7ede b7be 4b78 bdbd 3c77 2cbe
000002f0: 3ea4 493d 3c14 1abe 9492 84bd b4ee 03bc
00000300: 5ea9 5ebb 8b0d ab3c 79dc 87bc d35e 673c
00000310: 9417 af3c 4ab8 50bd 3f06 c23c 9253 12bd
00000320: 4375 9a3b f833 b0bc 572c 3e3c d171 af3a
00000330: e847 77bc 2d76 28bc 24fe cb3a 64c7 0f3a
00000340: a1f4 14ba 0233 99b9 d166 eb3c c5bd 06be
00000350: 7ca0 963d 58dc f03d f999 f43d fdd5 b2bd
00000360: b0d5 bcbd caeb 97ba 1466 babc 6e06 80bc
00000370: d21c 2bbd 6fd7 12bc 2148 c4bc 9e7a 0fba
00000380: b508 21b4 04b1 023d be9d e9bb 29e7 bb3d
00000390: b29b 093d 1c88 8c3b 8803 733c 7cf3 c23c
000003a0: 9f85 8fb9 0bf7 f23a 449b 74bc 2f48 42bb
000003b0: 7c22 24ba 5f8b 91bb 51b1 b539 52fc 96b1
000003c0: 6f2c 0c28 8fe5 77b3 37f8 22ad b2e1 d8b2
000003d0: 93e0 bca8 7035 b628 3099 a125 5977 b4aa
000003e0: 72e8 aa2d c49b 862c 2c19 33b1 fb19 ecb1
000003f0: b4fe 91ad 5b57 aeab 53ab 892a 3a35 0c2f

shared_layer.input_projection.bias f4 [128]
-2.3943087e-06 0.035838425 0.07932186 0.05270722 -0.04174078 0.17935288 -0.07492063 0.0066612745
-0.0808849 -0.00037669454 0.16132814 -0.016772367 -0.030405048 0.018496865 -0.093674205 -0.056896374
-0.00033854682 -3.996515e-06 0.062293027 -0.0055253487 0.036473177 -0.10249077 -0.00048095183 0.13980705
-0.0141329 -0.0020727047 -0.09010952 -0.06765267 -0.0035021985 0.044691514 0.005714002 0.09399854
-0.00080823334 -0.041824874 0.08422006 0.048582822 -0.000102559745 0.12633696 0.10086103 -0.025162987
-4.9940223e-05 -0.10467028 -4.2483738e-05 2.2136757e-05 0.07421047 -0.042196058 -0.0038950443 -0.014812057
-0.0626841 0.056523338 0.13565549 0.18202458 -0.010515565 -0.00063041085 0.07096665 -0.019661123
0.010317841 0.09366795 0.059478924 0.009557761 -0.0063497648 -0.052674238 -0.13268997 0.057157304
-0.03331179 0.06814991 0.12871549 0.18544354 -0.067604385 0.016137224 0.019130882 0.036067232
-0.0053779376 0.11102708 -0.08400753 0.12663554 0.07932735 0.087454386 -0.010832761 0.017351
-0.0024176943 0.0854019 0.050153937 0.17712842 -0.022273809 0.13259585 0.05806972 -0.016520947
0.040474318 -0.111592315 -0.09066531 -3.800289e-05 -0.10459457 0.060274735 -0.09092343 -0.038354747
0.058641694 0.0124156745 -0.037283767 -0.017510954 0.0067866584 0.007441496 0.15438026 0.08479084
-0.19279857 -0.0013528642 0.04071103 -0.02227484 0.12101184 -0.011032305 -0.0054677036 -0.21174559
0.07410546 -0.15623856 -0.030412246 -0.13424173 0.06687305 0.046976615 0.08059838 -0.028150804
0.00856885 0.14511444 0.03890726 0.12422823 -0.036887698 -0.039469004 0.016960531 -0.14353669
00000000: e9ad 20b6 50cb 123d 8073 a23d 87e3 573d
00000010: 61f8 2abd 48a8 373e fd6f 99bd d246 da3b
00000020: fca6 a5bd 167f c5b9 3433 253e 3466 89bc
00000030: 0214 f9bc bd86 973c 43d8 bfbd 2c0c 69bd
00000040: fc7e b1b9 cd19 86b6 f926 7f3d fc0d b5bb
00000050: e664 153d aee6 d1bd 4328 fcb9 9429 0f3e
00000060: ae8d 67bc 37d6 07bb 578b b8bd 7c8d 8abd
00000070: 2485 65bb 730e 373d 863c bb3b 4e82 c03d
00000080: 9fdf 53ba 8f50 2bbd 917b ac3d c8fe 463d
00000090: 5815 d7b8 7a5e 013e 3a90 ce3d 9c22 cebc
000000a0: e876 51b8 5f5d d6bd 9130 32b8 53b2 b937
000000b0: a9fb 973d c6d5 2cbd 0044 7fbb 45ae 72bc
000000c0: 8560 80bd 0485 673d 46e9 0a3e a764 3a3e
000000d0: 7a49 2cbc 2842 25ba f756 913d 5d10 a1bc
000000e0: 290c 293c fbd4 bf3d 2ca0 733d 2898 1c3c
000000f0: b011 d0bb f1c0 57bd e1df 07be c71d 6a3d
00000100: f271 08bd 2e92 8b3d fecd 033e e9e4 3d3e
00000110: 2b74 8abd 3632 843c 5eb8 9c3c 3cbb 133d
00000120: 6939 b0bb 2a62 e33d 240c acbd bfac 013e
00000130: 6176 a23d 491b b33d e57b 31bc af23 8e3c
00000140: 2e72 1ebb 31e7 ae3d 376e 4d3d 2761 353e
00000150: 9077 b6bc 35c7 073e 84da 6d3d f056 87bc
00000160: 66c8 253d 838a e4bd bcae b9bd 4b65 1fb8
00000170: ae35 d6bd a4e2 763d 1036 babd de19 1dbd
00000180: 4632 703d 1d6b 4b3c ddb6 18bd 2273 8fbc
00000190: 9e62 de3b cbd7 f33b dc15 1e3e d2a6 ad3d
000001a0: fd6c 45be 9752 b1ba 9cc0 263d ba79 b6bc
000001b0: 0ed5 f73d d7c0 34bc 6c2a b3bb d6d3 58be
000001c0: 9ac4 973d 00fd 1fbe 1a23 f9bc aa76 09be
000001d0: bdf4 883d 8d6a 403d c310 a53d 849c e6bc
000001e0: 5d64 0c3c e198 143e 385d 1f3d 5f6b fe3d
000001f0: 8e17 17bd 40aa 21bd d0f0 8a3c 48fb 12be

shared_layer.norm_input.weight f4 [128]
0.06956624 0.25906372 0.29142848 0.11001576 0.42935848 0.5542712 0.31433392 0.12213423
0.17931457 0.1119219 0.33650866 0.40598992 0.5667643 0.10466818 0.42759284 0.1316969
0.20553264 0.48102576 0.44137818 0.20851374 0.31381702 0.3594679 0.11856826 0.42397043
0.07059222 0.12343023 0.15880078 0.07107204 0.07043009 0.08552972 0.2154327 0.16479006
0.29419437 0.41655546 0.38271537 0.68511957 0.19973892 0.104869545 0.16733424 0.30455458
0.39853147 0.3927325 0.27919614 0.4668008 0.3571091 0.092502 0.11179167 0.32302028
0.10209177 0.58198893 0.73897886 0.6026317 0.28194478 0.28276178 0.26029032 0.16532205
0.23815417 0.37434238 0.6177382 0.12851673 0.30659834 0.20932005 0.2310775 0.053808905
0.1170337 0.30951476 0.3444219 0.47445852 0.31629243 0.094747275 0.17521754 0.18762456
0.12615353 0.42114097 0.1833874 0.09666713 0.36057276 0.09126639 0.39820424 0.1687951
0.11287562 0.68740964 0.42626283 0.6985018 0.1476455 0.4142906 0.07303596 0.11048199
0.08234313 0.18419655 0.23531394 0.18183018 0.13648443 0.08582068 0.5222157 0.2793733
0.10475119 0.062235557 0.23838125 0.1668364 0.0690317 0.23452719 0.25482944 0.5387421
0.43101484 0.17155798 0.064256184 0.082757585 0.41634852 0.339329 0.09047557 0.39893946
0.626591 0.39940715 0.34158537 0.33830371 0.25989738 0.08861234 0.5024607 0.10572539
0.17329359 0.59159434 0.24341248 0.12816615 0.30316186 0.52779955 0.10074305 0.6094428
00000000: bf78 8e3d 00a4 843e 1d36 953e f14f e13d
00000010: e0d4 db3e b8e4 0d3f 60f0 a03e 8321 fa3d
00000020: 3d9e 373e 4f37 e53d dd4a ac3e e9dd cf3e
00000030: 7717 113f 455c d63d 73ed da3e 8ddb 063e
00000040: 2677 523e 0249 f63e 52fc e13e a084 553e
00000050: a0ac a03e 2d0c b83e ead3 f23d a712 d93e
00000060: a792 903d fdc8 fc3d ac9c 223e 388e 913d
00000070: a73d 903d 352a af3d 649a 5c3e babe 283e
00000080: a5a0 963e c246 d53e 45f3 c33e ff63 2f3f
00000090: 5c88 4c3e d8c5 d63d ab59 2b3e 94ee 9b3e
000000a0: 510c cc3e 3c14 c93e ccf2 8e3e 8400 ef3e
000000b0: 01d7 b63e b071 bd3d 08f3 e43d ea62 a53e
000000c0: 7d15 d13d 3afd 143f b82d 3d3f 1246 1a3f
000000d0: 115b 903e 27c6 903e c644 853e 2f4a 293e
000000e0: b0de 733e cea9 bf3e 1724 1e3f e499 033e
000000f0: 75fa 9c3e ff57 563e 959f 6c3e ba66 5c3d
00000100: 5daf ef3d b878 9e3e 1158 b03e 3aec f23e
00000110: 15f1 a13e dc0a c23d 3a6c 333e a720 403e
00000120: 642e 013e ca9f d73e e8c9 3b3e 6bf9 c53d
00000130: fe9c b83e e0e9 ba3d 6de1 cb3e 9fd8 2c3e
00000140: 552b e73d 14fa 2f3f 1f3f da3e 04d1 323f
00000150: 6230 173e e61d d43e e193 953d 6244 e23d
00000160: 84a3 a83d 059e 3c3e 23f6 703e b131 3a3e
00000170: 93c2 0b3e c1c2 af3d eeaf 053f 040a 8f3e
00000180: cb87 d63d b6ea 7e3d 371a 743e 29d7 2a3e
00000190: 7e60 8d3d e527 703e 0179 823e 01eb 093f
000001a0: faad dc3e e5ac 2f3e bf98 833d cf7c a93d
000001b0: a22b d53e 88bc ad3e 414b b93d cb41 cc3e
000001c0: 4568 203f 187f cc3e 47e4 ae3e 2536 ad3e
000001d0: 4511 853e 637a b53d 44a1 003f 8e86 d83d
000001e0: e073 313e ba72 173f 1f41 793e fd3d 033e
000001f0: 0838 9b3e df1d 073f 5f52 ce3d 7104 1c3f

shared_layer.norm_input.bias f4 [128]
0.024432318 -0.04269253 -0.06055292 -0.010473506 -0.043857023 0.013117844 -0.037303995 0.03077775
0.0018497735 -0.00016226964 -0.01808953 -0.013204331 -0.0658074 0.010247018 -0.033932462 -0.0042781965
-0.0055646063 -0.036523584 -0.033602934 0.011071062 -0.00898063 -0.068400316 0.0047000214 0.0036201081
0.005384089 0.031143237 0.009627051 0.021672353 0.032587018 0.007500262 -0.018889975 -0.0356109
0.0010936244 -0.029366769 -0.039923977 -0.088701114 -0.03830061 0.02248553 0.014372798 0.0033568966
-0.00566938 -0.035147533 0.00962072 -0.015207369 -0.0058714123 0.017321564 0.01892163 0.00044374444
0.01720688 -0.03814884 -0.07591468 -0.074968636 0.010552922 0.02749977 -0.053879607 0.006440389
-0.03136895 0.019163508 0.06571572 0.027489427 0.019133411 -0.012009361 -0.0052657244 0.0021634076
0.023369558 0.03038135 0.0042482642 0.021313917 -0.002805468 -0.012593862 0.01415586 -0.029155474
0.02084714 -0.04693647 0.008505104 -0.006678662 -0.038690608 0.012736416 -0.068265766 0.016683133
-0.0035154643 0.015032102 0.04973968 0.076873764 0.01469184 -0.020147081 0.0006003562 -0.013457311
0.01568934 0.008981695 0.0038837874 0.017098876 0.004126169 0.0048387772 -0.055105343 -0.04497072
0.0016218893 0.0044956915 0.041013088 -0.005871224 0.01320713 -0.016685752 0.042651635 -0.0848622
-0.045158174 0.0036810713 -0.004839829 0.008964795 -0.0017761842 -0.065529495 0.022775602 -0.040275067
0.0046643084 -0.050568108 0.032073807 -0.0050736284 -0.013629773 0.0038078753 0.021191785 -0.015693769
0.019817883 -0.016353533 -0.039988138 -0.0002792764 0.013331521 -0.089561924 0.0028047513 -0.0911383
00000000: 4926 c83c 5dde 2ebd 5706 78bd 1199 2bbc
00000010: 6ca3 33bd 3aec 563c 13cc 18bd 9f21 fc3c
00000020: 1974 f23a ed26 2ab9 7e30 94bc fa56 58bc
00000030: 08c6 86bd 1ce3 273c c4fc 0abd 1d30 8cbb
00000040: 4d57 b6bb c199 15bd 3ba3 09bd 6663 353c
00000050: 7e23 13bc 7715 8cbd a302 9a3b 563f 6d3b
00000060: 036d b03b 1a20 ff3c c7ba 1d3c 388a b13c
00000070: f779 053d c2c4 f53b 26bf 9abc bcdc 11bd
00000080: f257 8f3a 9492 f0bc 5387 23bd eea8 b5bd
00000090: 1ae1 1cbd 9333 b83c e27b 6b3c 61ff 5b3b
000000a0: 35c6 b9bb dcf6 0fbd 39a0 1d3c 5428 79bc
000000b0: fa64 c0bb f4e5 8d3c 8901 9b3c 5fa6 e839
000000c0: 71f5 8c3c f541 1cbd 2879 9bbd 2889 99bd
000000d0: 2ae6 2c3c 3347 e13c ddb0 5cbd e609 d33b
000000e0: ba7c 00bd cafc 9c3c f795 863d 8231 e13c
000000f0: acbd 9c3c e9c2 44bc 198c acbb f5c7 0d3b
00000100: 8471 bf3c 4fe2 f83c 0635 8b3b 869a ae3c
00000110: f1db 37bb 7c56 4ebc fbed 673c 76d7 eebc
00000120: 9fc7 aa3c 7540 40bd fe58 0b3c add8 dabb
00000130: 0b7a 1ebd 67ac 503c ecce 8bbd 11ab 883c
00000140: b463 66bb 3549 763c d6bb 4b3d fe6f 9d3d
00000150: 0bb6 703c 7e0b a5bc 3961 1d3a 0e7c 5cbc
00000160: ee86 803c f627 133c 2487 7e3b f112 8c3c
00000170: d034 873b 9b8e 9e3b 24b6 61bd 3833 38bd
00000180: 9395 d43a 9850 933b 57fd 273d 6663 c0bb
00000190: b862 583c 8fb0 88bc 7bb3 2e3d 3ccc adbd
000001a0: c7f7 38bd 213e 713b 6e97 9ebb 13e1 123c
000001b0: dace e8ba 5434 86bd e693 ba3c 78f7 24bd
000001c0: 0ed7 983b 8120 4fbd d35f 033d ae40 a6bb
000001d0: 694f 5fbc 8c8d 793b 659a ad3c 3890 80bc
000001e0: 1d59 a23c d8f7 85bc 9aca 23bd d86b 92b9
000001f0: 746c 5a3c 3e6c b7bd ebcf 373b b8a6 babd

shared_layer.res_blocks.0.fc1.weight f4 [128, 128]
9.4479015e-05 0.00027997233 -0.00056977954 -0.0005860031 0.00036165424 -0.00078657473 6.104646e-05 -3.042515e-05
4.6300345e-05 -6.611335e-05 0.00042987507 0.00023251014 0.0014435509 3.289093e-05 0.00014674281 1.8419207e-05
0.00018764084 0.00038740895 -0.000300301 0.0002635067 -0.00037262344 0.0002191239 8.338967e-05 -0.00023229542
3.2191987e-05 -8.7099674e-05 5.0275266e-06 5.1119303e-05 4.103861e-05 -2.7418528e-05 1.3426889e-05 -0.00094327435
0.0002782503 0.00029482503 -0.006316188 -0.00023637404 0.000106519874 -3.3496435e-05 5.3197495e-05 0.0003293349
0.00037295435 7.311858e-05 0.00012854961 7.518678e-05 -0.00039594359 6.592621e-05 0.00020108455 7.3626376e-05
4.0038834e-05 0.0021405155 -0.0006990867 -0.00058103434 -8.77411e-06 0.00021912465 0.0001838293 0.00011885889
-0.00015760268 -0.00057052105 -0.001451015 9.335858e-06 0.00030557121 -0.00012540918 -8.1021884e-05 9.024662e-06
4.99617e-05 -0.00014786408 -0.00020094516 -0.00039252377 0.00017108522 -1.05945355e-05 0.0032625175 4.12945e-05
6.353029e-05 -0.0027697172 -7.0907496e-05 -0.00015163702 -0.0005251917 -3.3319095e-05 -0.0002951341 0.00010379465
1.609807e-05 -0.0012640323 0.00014488665 -0.00095359934 0.00013016524 0.0064871716 -3.6176447e-05 3.6599247e-06
-3.7585316e-05 0.00021464442 9.32228e-05 0.00013832816 0.00012303586 -3.05917e-05 -0.0004773639 1.8864786e-05
-5.5894616e-05 -2.7674978e-05 7.8966936e-05 0.00011769715 -1.5907104e-05 -0.0031331624 -0.0005111986 -0.0014744465
0.00040924977 0.000112323665 -8.434528e-06 9.483884e-05 9.937116e-05 6.2420906e-05 3.869634e-05 0.0001304875
0.0019449355 2.700962e-05 0.0005321475 -0.0003234058 -0.0002492614 4.755466e-05 0.0024142547 -3.298096e-05
2.6280668e-05 -0.001125936 0.0017957751 -0.00026712447 8.346943e-05 -0.0009748797 -6.8794274e-05 0.00077597157
-0.0017955846 -0.01584399 -0.0029144704 -0.00041361514 0.0074881334 0.019343635 -0.0073873564 -0.0031624322
0.0065135336 0.0019027963 0.02094588 0.0014358438 -0.019405946 -0.0032252662 0.010983386 0.0051136184
-0.00088772085 0.0041101174 -0.032748483 -0.005801852 0.025964629 -0.017271273 -0.0010835187 0.015813887
-0.0012603385 0.0073121693 0.0019765452 -0.0016253302 -0.0011381158 0.0008347667 -0.0026319015 0.0053881537
0.002102077 0.0025342251 -0.0145340655 0.00226589 0.0015344087 -0.0024925238 -0.011293881 -0.0028853936
-0.0035666323 -0.028511161 0.0010077094 0.016024956 0.025834022 -0.0013919751 -6.560871e-05 0.0027952644
0.0018006923 0.022723367 -0.06718072 -0.033439882 0.006160839 -0.00095145294 -0.018144406 -0.0016465131
-0.011291112 -0.005879987 0.05300488 0.0072146268 0.0017638877 0.0077702007 0.011309032 -0.0030568498
-0.00037376248 -0.021253563 0.0032780964 -0.038378075 0.0061534727 0.0034227506 0.007004786 -0.0029540407
0.002115381 0.012885665 0.008109131 0.00030019955 -0.020052176 0.0014942114 -0.008986488 0.011274847
0.0013193069 0.067009546 0.047953535 0.04861422 -0.0018076008 0.025643941 0.0004061947 0.002688631
0.0011731446 -0.0012087127 0.002675092 0.001710976 8.839368e-06 0.0015421686 0.006151103 -0.0058665797
0.0017778184 0.0037450972 0.0005844455 -2.5732484e-06 0.0018662993 0.0008862888 0.014022524 -0.016866896
-0.009406233 -0.0018326268 0.0011742973 -0.001471179 0.014947185 -0.027186848 0.00085785287 0.017870327
0.056007076 0.0018862443 0.0072716693 -0.0046380865 -0.0007105779 0.0043105152 0.047356825 0.00446356
0.00015195635 -0.063214615 0.013747353 0.0062709153 0.005184747 -0.041216303 0.0036925797 -0.025188444
00000000: 0923 c638 40c9 9239 425d 15ba 019e 19ba
00000010: 699c bd39 2332 4eba 1206 8038 8339 ffb7
00000020: 9e32 4238 56a6 8ab8 db60 e139 f7cd 7339
00000030: 8835 bd3a 5ef4 0938 f9de 1939 f282 9a37
00000040: 74c1 4439 261d cb39 b871 9db9 4527 8a39
00000050: ac5c c3b9 a0c4 6539 7de1 ae38 5494 73b9
00000060: e205 0738 48a9 b6b8 20b2 a836 ef68 5638
00000070: df20 2c38 d700 e6b7 0d44 6137 1246 77ba
00000080: 20e2 9139 bf92 9a39 06f8 cebb 2cdb 77b9
00000090: 6c63 df38 867e 0cb8 6020 5f38 95aa ac39
000000a0: 1689 c339 3d57 9938 46cb 0639 98ad 9d38
000000b0: a696 cfb9 dd41 8a38 39da 5239 dc67 9a38
000000c0: 5fef 2738 e447 0c3b ea42 37ba 8e50 18ba
000000d0: 8434 13b7 d3c4 6539 4dc2 4039 e143 f938
000000e0: 2642 25b9 058f 15ba fc2f beba 34a1 1c37
000000f0: 1335 a039 4580 03b9 4bea a9b8 a168 1737
00000100: f88d 5138 f60b 1bb9 ceb4 52b9 a6cb cdb9
00000110: 5765 3339 2fbf 31b7 f6cf 553b a233 2d38
00000120: 913b 8538 2584 35bb 2cb4 94b8 c100 1fb9
00000130: 05ad 09ba 1bc0 0bb8 3abc 9ab9 54ac d938
00000140: 580a 8737 e3ad a5ba b7ec 1739 f8fa 79ba
00000150: f77c 0839 5792 d43b 2abc 17b8 079d 7536
00000160: eda4 1db8 2c12 6139 9c80 c338 2f0c 1139
00000170: 3003 0139 964f 00b8 b346 fab9 d23f 9e37
00000180: 6370 6ab8 9027 e8b7 0d9b a538 2dd4 f638
00000190: 3f70 85b7 be55 4dbb f501 06ba 3742 c1ba
000001a0: 9390 d639 4f8f eb38 0682 0db7 37e4 c638
000001b0: 7c65 d038 f8e7 8238 e14d 2238 79d3 0839
000001c0: 35ed fe3a b892 e237 d07f 0b3a cb8e a9b9
000001d0: 4caf 82b9 6d75 4738 7938 1e3b 0955 0ab8
000001e0: 4e75 dc37 2594 93ba 3760 eb3a d70c 8cb9
000001f0: 4f0c af38 128f 7fba a545 90b8 926a 4b3a
00000200: d259 ebba 41cb 81bc b300 3fbb 7cda d8b9
00000210: 045f f53b 8b76 9e3c a311 f2bb cf40 4fbb
00000220: 7b6f d53b 4067 f93a b296 ab3c ec32 bc3a
00000230: 38f9 9ebc fd5e 53bb a9f3 333c 2490 a73b
00000240: f0b5 68ba 2aae 863b 4623 06bd 761d bebb
00000250: c6b3 d43c 7c7c 8dbc db04 8eba 208c 813c
00000260: f131 a5ba ec9a ef3b ed88 013b 0809 d5ba
00000270: d42c 95ba 3fd4 5a3a fb7b 2cbb 1c8f b03b
00000280: 00c3 093b 3e15 263b 4a20 6ebc 537f 143b
00000290: 361e c93a 9c59 23bb f809 39bc df18 3dbb
000002a0: 29be 69bb 3d90 e9bc 1e15 843a c546 833c
000002b0: dfa1 d33c ef72 b6ba 6897 89b8 c130 373b
000002c0: 3505 ec3a 5b26 ba3c 0c96 89bd 42f8 08bd
000002d0: dde0 c93b ed6a 79ba 94a3 94bc d0cf d7ba
000002e0: 5bfe 38bc e8ac c0bb a51b 593d ad68 ec3b
000002f0: 4032 e73a 2b9d fe3b 8549 393c 6e55 48bb
00000300: 8df5 c3b9 f41b aebc 55d5 563b 5432 1dbd
00000310: 12a3 c93b 3a50 603b 6788 e53b 9498 41bb
00000320: 34a2 0a3b 651e 533c 29dc 043c 1a64 9d39
00000330: 7644 a4bc 6ad9 c33a 103c 13bc 23ba 383c
00000340: 98ec ac3a 4d3c 893d ed6a 443d b41f 473d
00000350: 05ed ecba 3e13 d23c 88f6 d439 be33 303b
00000360: 33c4 993a ab6d 9eba 9950 2f3b d442 e03a
00000370: cc4c 1437 9722 ca3a 318f c93b 703c c0bb
00000380: b005 e93a 4e70 753b 7935 193a 12b0 2cb6
00000390: 9d9e f43a d655 683a babe 653c 722c 8abc
000003a0: 9a1c 1abc c034 f0ba e1ea 993a 93d4 c0ba
000003b0: 0ae5 743c f4b6 debc 88e1 603a cb64 923c
000003c0: ad67 653d db3b f73a 2f47 ee3b 17fb 97bb
000003d0: 1346 3aba 393f 8d3b 3bf9 413d 0e43 923b
000003e0: 7956 1f39 aa76 81bd 943c 613c 407c cd3b
000003f0: cfe4 a93b 6dd2 28bd 35ff 713b ff57 cebc

shared_layer.res_blocks.0.fc1.bias f4 [128]
-0.0013462567 -0.0029279378 -0.0007014466 -0.00046020493 -0.0003535928 -0.00032630033 -0.00032711192 -0.00013673492
-0.00014772291 0.0030020676 -0.0012695782 -0.00026905435 -0.0002885957 0.00055483327 0.0012129014 0.007126888
0.0031124305 -0.00032834162 -0.0001816316 0.0018520696 -0.00042278887 -0.00030004772 0.0031095746 -0.0033987607
-0.000605558 -0.0011834883 -7.500501e-06 0.00067903503 0.00077057583 0.0020968942 0.0019896936 0.06104004
0.00091662316 -0.0006728094 -0.0006034976 -0.0007546616 0.0028641447 -0.00045442462 -0.00024893243 -0.00010421433
-0.00077273854 -0.00053769164 0.0002819408 -0.00019945222 -0.00010790604 0.0025957664 -0.00034199844 -0.0012457145
-0.0001896869 -0.0013998562 -7.7252516e-05 -0.0020932606 0.004992398 0.007963006 -0.0004514717 -0.0007102602
0.0083444435 -8.279988e-05 0.0003885335 -0.00088148867 0.00023395602 0.00086733367 0.0007343131 -6.562543e-05
-0.000271029 -0.0016452703 -0.00034672645 -0.00053249346 -0.00054676173 -0.00077088864 -0.00025180753 0.001741899
-0.0011921354 -0.0002756694 -0.00012453408 -0.0009137942 0.0028522976 0.0013207803 0.0020539535 -0.0011842456
-0.0006518014 -7.849955e-05 -0.0036614584 0.00015328013 -4.2633314e-05 0.0027030336 -7.936166e-05 -0.00082874345
-0.0013734165 0.00032965632 -0.00017063618 0.05654122 0.0009801271 -3.647192e-05 0.00037895265 0.0095909145
-0.001980255 0.0025607822 -0.00026779712 -0.0026821436 -0.0047853026 -0.0004775666 -0.00033200072 0.0032030097
-0.00023284028 -0.0006044764 -0.00026852757 0.004784065 0.004987401 -0.001155095 0.0036926453 0.0040329536
-0.00011006014 -0.000109300476 -0.00042170685 -0.00060656737 -2.4029603e-05 -0.00078692846 -0.00075190014 0.0004163151
-0.00024813178 -0.006638099 -0.00015073021 -0.00021956381 -0.00048370994 0.0009091187 -0.0023735284 0.0035903086
00000000: e174 b0ba a5e2 3fbb 49e1 37ba a947 f1b9
00000010: 6c62 b9b9 4a13 abb9 3880 abb9 8060 0fb9
00000020: 11e6 1ab9 56be 443b fa67 a6ba dd0f 8db9
00000030: a94e 97b9 3b72 113a 38fa 9e3a ab88 e93b
00000040: ebf9 4b3b 4425 acb9 5d74 3eb9 25c1 f23a
00000050: c3a9 ddb9 b94f 9db9 01ca 4b3b bebd 5ebb
00000060: 4fbe 1eba 471f 9bba d0ac fbb6 4501 323a
00000070: 7800 4a3a 0c6c 093b 8565 023b 1f05 7a3d
00000080: 8a49 703a 795f 30ba 0a34 1eba 7cd4 45ba
00000090: 60b4 3b3b d73f eeb9 2583 82b9 a48d dab8
000000a0: 9b91 4aba e0f3 0cba 74d1 9339 0c24 51b9
000000b0: 9d4b e2b8 bc1d 2a3b 414e b3b9 3e47 a3ba
000000c0: b1e6 46b9 617b b7ba a102 a2b8 162f 09bb
000000d0: 4597 a33b 4577 023c 81b3 ecb9 c130 3aba
000000e0: 22b7 083c d9a4 adb8 15b4 cb39 b413 67ba
000000f0: 1752 7539 c75d 633a eb7e 403a 62a0 89b8
00000100: e618 8eb9 1ca6 d7ba d6c8 b5b9 0897 0bba
00000110: 8f54 0fba 7615 4aba 0905 84b9 6e50 e43a
00000120: 6d41 9cba b887 90b9 5d95 02b9 b18b 6fba
00000130: 9ded 3a3b 081e ad3a 9f9b 063b b038 9bba
00000140: a7dd 2aba 20a0 a4b8 14f5 6fbb d2b9 2039
00000150: 2cd1 32b8 6125 313b f76e a6b8 0840 59ba
00000160: 3604 b4ba b9d5 ac39 cdec 32b9 c497 673d
00000170: 9c77 803a 6df9 18b8 2aae c639 3623 1d3c
00000180: 2ac7 01bb ccd2 273b 1f67 8cb9 e7c6 2fbb
00000190: 07ce 9cbb e761 fab9 6210 aeb9 96e9 513b
000001a0: 9626 74b9 b975 1eba 29c9 8cb9 a5c3 9c3b
000001b0: 5a6d a33b 8e66 97ba 4f00 723b de26 843b
000001c0: 16d0 e6b8 3f38 e5b8 8918 ddb9 0c02 1fba
000001d0: 2e93 c9b7 e049 4eba 2a1b 45ba de44 da39
000001e0: af17 82b9 6984 d9bb 550d 1eb9 b63a 66b9
000001f0: 739a fdb9 ec51 6e3a 338d 1bbb 624b 6b3b

shared_layer.res_blocks.0.norm1.weight f4 [128]
0.04871312 0.17730072 0.051619332 0.049387597 0.044224806 0.07321732 0.05009443 0.048492506
0.112016946 0.043528143 0.051312417 0.04267799 0.050389566 0.045561176 0.13407555 0.071133204
0.045791194 0.050847515 0.04553375 0.06470415 0.039424896 0.056188915 0.08886402 0.1023387
0.048680287 0.048707537 0.04409895 0.053967576 0.066749066 0.04788608 0.052238517 0.3719427
0.042503327 0.049302 0.06993496 0.04551742 0.04690561 0.050742798 0.04853228 0.049798343
0.057191703 0.085591935 0.056191117 0.0502625 0.04913375 0.0413582 0.050178934 0.06266613
0.05266933 0.055359952 0.05169051 0.07147951 0.042158086 0.13951154 0.054742217 0.0524505
0.07717337 0.05007258 0.045550607 0.054508265 0.11050451 0.045671638 0.039975908 0.05260938
0.05487614 0.041338246 0.05050484 0.057793036 0.043592867 0.037223767 0.05145781 0.044225127
0.057188235 0.05159867 0.049369782 0.0466274 0.059453655 0.04994694 0.04380562 0.040119324
0.051529225 0.048921887 0.06613159 0.047775865 0.0604242 0.054076735 0.053283144 0.04576267
0.048090693 0.12004338 0.049030453 0.37536448 0.052282233 0.05791418 0.052946586 0.06955563
0.062282357 0.061386965 0.04578449 0.09014889 0.097408526 0.049077157 0.062311742 0.044293463
0.040374503 0.038691256 0.048816066 0.044471238 0.044489205 0.04785783 0.06496501 0.050453678
0.04430657 0.043413986 0.04752016 0.054627806 0.0494284 0.048783556 0.047499057 0.04655764
0.048867933 0.10506968 0.053138644 0.043385364 0.0549936 0.0459532 0.071137145 0.12572652
00000000: 6987 473d 528e 353e cb6e 533d a64a 4a3d
00000010: 1225 353d f6f2 953d d12f 4d3d 14a0 463d
00000020: 2469 e53d 914a 323d f82c 523d 1ecf 2e3d
00000030: 4a65 4e3d 5b9e 3a3d 1a4b 093e 49ae 913d
00000040: 8c8f 3b3d 7c45 503d 9981 3a3d 9c83 843d
00000050: 007c 213d 5926 663d 57fe b53d f496 d13d
00000060: fb64 473d 8e81 473d 1aa1 343d 1b0d 5d3d
00000070: bcb3 883d 3224 443d 0ef8 553d 466f be3e
00000080: f817 2e3d e5f0 493d 0f3a 8f3d 7970 3a3d
00000090: 1920 403d aed7 4f3d c9c9 463d 59f9 4b3d
000000a0: d941 6a3d d34a af3d a828 663d 0de0 4d3d
000000b0: 7940 493d 3767 293d 6d88 4d3d 1a57 803d
000000c0: ccbb 573d 1ec1 623d 6eb9 533d d963 923d
000000d0: f5ad 2c3d 1ddc 0e3e 6039 603d 56d6 563d
000000e0: 120d 9e3d e818 4d3d 4693 3a3d 0f44 5f3d
000000f0: 3050 e23d 2f12 3b3d c7bd 233d ef7c 573d
00000100: cec5 603d 4b52 293d 2ade 4e3d 64b8 6c3d
00000110: 6f8e 323d f377 183d 6dc5 523d 6825 353d
00000120: 363e 6a3d 2159 533d f837 4a3d 5ffc 3e3d
00000130: ad85 733d 2a95 4c3d 866d 333d 2954 243d
00000140: 4f10 533d 5162 483d 0070 873d a0b0 433d
00000150: 5e7f 773d 917f 5d3d 6d3f 5a3d a371 3b3d
00000160: bffa 443d 4ed9 f53d 28d4 483d c62f c03e
00000170: e525 563d 6b37 6d3d 85de 583d 2f73 8e3d
00000180: c91b 7f3d e670 7b3d 8488 3b3d fb9f b83d
00000190: 1f7e c73d 2105 493d 993a 7f3d 106d 353d
000001a0: bc5f 253d b97a 1e3d 5bf3 473d 7927 363d
000001b0: 503a 363d 9206 443d 600c 853d 84a8 4e3d
000001c0: ce7a 353d ddd2 313d 80a4 423d 68c1 5f3d
000001d0: 6f75 4a3d 44d1 473d 5f8e 423d 39b3 3e3d
000001e0: be29 483d c62e d73d e8a7 593d dab4 313d
000001f0: f840 613d 6c39 3c3d 5ab0 913d 74be 003e

shared_layer.res_blocks.0.norm1.bias f4 [128]
0.004183659 0.057731178 0.0014590182 -0.0011567709 0.0017901586 0.0026636696 0.0012484504 0.0036826078
0.004840678 0.0011705927 -0.00083688146 0.0029316836 0.00078393135 0.0018214827 0.049693614 0.012424838
-0.00076445454 0.002535251 0.0022057425 0.0050761164 -0.00021720123 0.00077775936 0.013922081 0.01843374
0.00010108008 0.00348917 0.0029374184 9.428327e-05 0.003759399 0.004015122 0.0023936154 0.030491827
0.0010555944 0.0035113445 0.0025658384 0.00019950424 0.0030753266 0.0025674612 0.0023913158 0.0037217292
0.0042354977 0.0058798166 0.0040384615 0.0039787176 0.0028108635 0.0030276582 0.002210387 0.00043698284
-0.0003398059 0.010713299 0.0012932582 0.008246066 0.002526454 0.01728644 -0.003557077 0.0014278297
0.0046389783 0.0034065375 0.0032811165 0.0014405574 0.014735959 0.00041471832 0.0013492985 0.004440266
0.0027160698 0.0038426744 -0.0011238813 -0.001415795 -7.1464776e-05 0.0032792585 0.003843312 0.00088311156
0.004127394 -0.00045446912 -0.0006449834 0.0034342622 0.0036315736 0.0020655065 0.0054280963 0.0019304462
0.0018411955 0.0021491656 0.0033838318 0.00255527 0.003929705 0.003441436 0.0030181552 0.0024994197
0.00040025628 -0.0037071968 0.002563542 0.030029763 0.003479891 0.0034354948 0.0017495533 0.020068046
0.008944952 0.004503524 0.00209233 0.006783127 0.04717077 0.0039001333 0.0030069377 0.0009064546
0.0016055634 0.0012464677 0.0010063347 0.006569136 -0.0037571462 0.0033270975 0.0039874306 8.377812e-05
0.0007883605 0.0018601555 0.0020227968 0.002899578 0.0034635952 0.0027492933 0.006298279 0.002030442
0.008320193 0.0052595683 0.00037751705 -0.0019830249 0.0029093944 0.0010990506 0.017456459 0.014174222
00000000: 1317 893b 8777 6c3d 873c bf3a ca9e 97ba
00000010: c1a3 ea3a f690 2e3b 0ba3 a33a e857 713b
00000020: 8d9e 9e3b 936e 993a 2a62 5bba 7d21 403b
00000030: be80 4d3a d1be ee3a 888b 4b3d 8c91 4b3c
00000040: ad65 48ba 7426 263b 388e 103b 8d55 a63b
00000050: 83c0 63b9 8ce2 4b3a 7119 643c 5b02 973c
00000060: f4fa d338 8faa 643b b481 403b f2b9 c538
00000070: 4060 763b 4991 833b 34de 1c3b ffc9 f93c
00000080: df5b 8a3a 961e 663b a027 283b 0332 5139
00000090: 6b8b 493b da42 283b 9fb7 1c3b 41e8 733b
000000a0: eec9 8a3b 7aab c03b 1255 843b e75f 823b
000000b0: 7736 383b ad6b 463b 24dc 103b d81a e539
000000c0: fa27 b2b9 d586 2f3c 8b82 a93a 821a 073c
000000d0: dd92 253b 4b9c 8d3c d91d 69bb 0426 bb3a
000000e0: 9202 983b 3740 5f3b 0008 573b 16d1 bc3a
000000f0: 176f 713c 8d6e d939 f2da b03a a77f 913b
00000100: 1700 323b 61d5 7b3b 334f 93ba 3292 b9ba
00000110: 5cdf 95b8 d4e8 563b 13e0 7b3b 9d80 673a
00000120: 173f 873b d045 eeb9 1a14 29ba 5c11 613b
00000130: b2ff 6d3b 735d 073b 2cde b13b 0707 fd3a
00000140: 4554 f13a 04d9 0c3b 47c3 5d3b 5176 273b
00000150: c1c4 803b b789 613b 3ecc 453b 4ecd 233b
00000160: 7dd9 d139 71f4 72bb 1901 283b fa00 f63c
00000170: e20e 643b 0a26 613b 4451 e53a be65 a43c
00000180: d98d 123c 4c92 933b 791f 093b fe44 de3b
00000190: 2336 413d 6199 7f3b 0b10 453b 239f 6d3a
000001a0: c571 d23a 8460 a33a fde6 833a e841 d73b
000001b0: 743a 76bb 6f0b 5a3b fea8 823b 09b2 af38
000001c0: faa9 4e3a 76d0 f33a e690 043b d906 3e3b
000001d0: 7cfd 623b 7d2d 343b cb61 ce3b 2a11 053b
000001e0: 6b51 083c 7558 ac3b 7bed c539 a3f5 01bb
000001f0: 8aab 3e3b 050e 903a d900 8f3c ff3a 683c

shared_layer.res_blocks.0.fc2.weight f4 [128, 128]
0.0002662309 -0.0008546813 0.0003898952 0.00037128173 0.00065152143 0.0007814758 0.00085546356 0.0002729947
-0.014811939 0.00070968736 0.0005311452 0.00063445774 0.0004677064 0.00031462865 0.0053911875 0.000876385
0.0005658082 0.00032028108 0.000285247 0.0007691687 0.0004903982 0.00044301662 0.004514578 -0.0027924725
0.00051790563 0.0009074483 0.0009678286 -9.267597e-06 0.00060573313 0.00081030745 0.00046620666 -0.0029039246
0.00027740383 0.00051811035 0.00022273831 0.00064654934 0.0004990302 0.00028267436 0.00046414515 0.0010917644
0.00083646615 -0.012460443 0.00040496254 0.0003101176 0.00028319808 0.0007376053 0.0005391831 0.00064240757
0.00029932812 0.00022851626 0.0005340224 0.0009399854 0.00023484351 -0.023267958 -0.00035393648 0.00025190957
-0.013794816 0.00040780034 0.00078468194 0.0003021289 0.01080215 0.00025115578 0.00049539376 0.00036857903
0.0022700164 0.00044736042 0.00010924447 0.0005176618 0.00045960632 0.000661107 0.0006573621 0.00025422298
0.00030599625 0.00071974704 0.00076010317 0.00053023564 0.00040450017 0.00015076327 0.0009014383 0.00055809174
0.00046856873 0.00059134036 0.0007418912 0.00031804526 0.000803547 0.0005192841 -0.00015283613 0.00046924848
0.0008670191 -0.011858802 0.00013611167 0.032403424 0.000867595 0.0008794501 0.00015524507 0.0032795414
8.1793434e-05 0.0009684163 0.00045832136 -0.0037088394 0.013060466 -3.75611e-05 0.0008355999 0.0006033337
0.00053268706 0.0006097252 0.00029501406 0.0003523338 0.0008572582 -6.6659006e-05 0.0004381649 0.00015079552
8.506365e-05 0.000494291 0.0003634717 0.0002639852 0.000465774 0.00021419901 0.00032787528 0.0007650864
-6.285016e-05 -0.0043566846 0.00050468015 0.00040597544 0.00026721947 0.00013515555 0.006561064 0.007204031
2.2527413e-05 -0.000154048 1.8272778e-05 1.9652962e-05 2.3107965e-05 3.1877786e-05 1.9480067e-05 2.544109e-05
-0.0005266883 -2.1978607e-05 1.9953432e-05 1.2583527e-05 1.9436287e-05 -1.7375849e-05 -0.00011799147 -1.0880799e-05
6.6229018e-06 1.8695617e-05 -6.8160684e-06 1.5264579e-05 1.598691e-05 2.165888e-05 7.4224517e-06 4.4270055e-05
-2.0789847e-05 -1.8371228e-06 7.67871e-06 -1.9018411e-05 1.9012477e-05 -6.535823e-06 -3.550306e-05 -0.002676264
1.9824944e-05 1.722571e-05 2.1811372e-06 1.5930109e-05 -2.7071883e-06 1.8866824e-05 1.9903537e-05 2.2005068e-05
1.362959e-05 -0.00019320824 2.1595877e-05 -7.4076393e-06 2.4900428e-05 -2.5329622e-05 1.5526442e-05 1.9327279e-05
2.0655576e-05 1.2387825e-05 1.8471063e-05 2.8887373e-05 -3.6361844e-06 -0.00012339854 2.9521996e-05 2.19342e-05
-9.070736e-05 1.6917846e-05 1.691892e-05 3.271152e-05 2.788569e-05 -2.3807566e-05 -2.0495023e-05 1.851538e-05
1.2734391e-05 1.1932458e-05 2.001777e-05 4.0442133e-05 1.9099807e-05 1.14962895e-05 2.1230528e-05 1.2266725e-05
1.088759e-05 1.9259727e-05 -9.0919375e-06 1.5795413e-05 -4.8818347e-06 7.00786e-06 1.1935844e-05 1.4232225e-05
-9.536244e-06 2.0887388e-05 -8.086234e-06 2.57899e-06 -9.160487e-06 1.5571391e-05 -3.9769257e-05 1.2642914e-05
-2.0801477e-05 9.686334e-06 1.7365976e-05 -0.004421783 -7.4261125e-06 1.970809e-05 1.8119455e-05 -5.4482352e-06
-1.5330052e-05 2.2613984e-05 1.5948948e-05 -0.00011369104 -0.0004082054 1.516911e-05 2.2107522e-05 -6.316568e-06
1.5263135e-05 1.7499438e-05 1.7489727e-05 -2.5319387e-05 -1.21233825e-05 2.76609e-05 -5.4470136e-05 -4.0400468e-05
1.8061684e-05 1.5678861e-05 1.9913494e-05 2.191975e-05 1.9807207e-05 1.5879858e-05 -1.6645645e-06 1.7463535e-05
1.145311e-05 -0.0005855432 1.9449095e-05 1.7610651e-05 -1.1622761e-05 -1.0049883e-05 -1.7269389e-06 2.4573443e-05
00000000: e894 8b39 b10c 60ba d96a cc39 97a8 c239
00000010: ddca 2a3a f4db 4c3a 3041 603a ba20 8f39
00000020: c6ad 72bc 500a 3a3a 8d3c 0b3a bd51 263a
00000030: 7e36 f539 bef4 a439 8fa8 b03b 34bd 653a
00000040: bf52 143a 66eb a739 348d 9539 0aa2 493a
00000050: 118e 003a af44 e839 06ef 933b ea01 37bb
00000060: 0fc4 073a d3e1 6d3a e1b5 7d3a 077c 1bb7
00000070: 10ca 1e3a d06a 543a 336d f439 c54f 3ebb
00000080: 8370 9139 ccd1 073a dc8e 6939 317d 293a
00000090: 5ad1 023a e933 9439 8258 f339 8919 8f3a
000000a0: 4b46 5b3a e326 4cbc 2751 d439 4897 a239
000000b0: 347a 9439 db5b 413a f757 0d3a 3e67 283a
000000c0: 24ef 9c39 de9d 6f39 a3fd 0b3a 5a69 763a
000000d0: 5340 7639 729c bebc 8d90 b9b9 bb12 8439
000000e0: a703 62bc 09ce d539 1db3 4d3a 0e67 9e39
000000f0: 80fb 303c 8fad 8339 50dd 013a d73d c139
00000100: 8ec4 143b b38b ea39 2e1a e538 b2b3 073a
00000110: 51f7 f039 244e 2d3a d352 2c3a 3b49 8539
00000120: 1f6e a039 68ad 3c3a a941 473a 83ff 0a3a
00000130: 1813 d439 3516 1e39 804e 6c3a e74c 123a
00000140: 3baa f539 2e04 1b3a 7a7b 423a 50bf a639
00000150: 20a5 523a 9120 083a a342 20b9 7705 f639
00000160: ab48 633a 6c4b 42bc 33b9 0e39 74b9 043d
00000170: 516f 633a e68a 663a 48c9 2239 93ed 563b
00000180: 8488 ab38 51dd 7d3a da4a f039 0010 73bb
00000190: 91fb 553c ed8a 1db8 290c 5b3a 0a29 1e3a
000001a0: 06a4 0b3a f7d5 1f3a 1eac 9a39 71b9 b839
000001b0: a0b9 603a 48cb 8bb8 7fb9 e539 dd1e 1e39
000001c0: 3364 b238 4f93 013a 5990 be39 7e67 8a39
000001d0: 2133 f439 9c9a 6039 ade6 ab39 1490 483a
000001e0: 6cce 83b8 85c2 8ebb 834c 043a 1ad9 d439
000001f0: 9719 8c39 8bb8 0d39 32fe d63b cb0f ec3b
00000200: 40f9 bc37 f287 21b9 7e48 9937 6adc a437
00000210: fad7 c137 83b4 0538 2069 a337 536a d537
00000220: 7411 0aba b35e b8b7 ab61 a737 d61d 5337
00000230: 1c0b a337 5ac2 91b7 3072 f7b8 ad8c 36b7
00000240: 4b3a de36 88d4 9c37 95b5 e4b6 6f0c 8037
00000250: a11b 8637 17b0 b537 600e f936 9cae 3938
00000260: db65 aeb7 0f93 f6b5 cfd3 0037 ba89 9fb7
00000270: fc7c 9f37 4b4e dbb6 1fe9 14b8 4264 2fbb
00000280: be4d a637 ee7f 9037 a75f 1236 a6a1 8537
00000290: 24ad 35b6 3244 9e37 85f6 a637 8697 b837
000002a0: a5aa 6437 f197 4ab9 cb28 b537 238f f8b6
000002b0: 43e1 d037 f37a d4b7 c83e 8237 0421 a237
000002c0: 8345 ad37 4ed5 4f37 4ef2 9a37 2953 f237
000002d0: 2c05 74b6 8b64 01b9 01a6 f737 56ff b737
000002e0: 253a beb8 ccea 8d37 1bed 8d37 ba33 0938
000002f0: 10ec e937 5cb6 c7b7 baec abb7 7a51 9b37
00000300: cba5 5537 8431 4837 d5eb a737 69a0 2938
00000310: 8638 a037 30e0 4037 3618 b237 2fcd 4d37
00000320: d8a9 3637 f38f a137 9389 18b7 6480 8437
00000330: a4ce a3b6 0f25 eb36 0f40 4837 f1c6 6e37
00000340: dbfd 1fb7 5337 af37 1caa 07b7 b612 2d36
00000350: feaf 19b7 4f9f 8237 eacd 26b8 e71c 5437
00000360: d57e aeb7 7d82 2237 26ad 9137 9be4 90bb
00000370: d22d f9b6 cd52 a537 3cff 9737 fccf b6b6
00000380: 0999 80b7 29b3 bd37 1bca 8537 6a6d eeb8
00000390: 6704 d6b9 d57e 7e37 8b73 b937 e8f2 d3b6
000003a0: 5509 8037 c2cb 9237 e7b6 9237 f864 d4b7
000003b0: 8865 4bb7 5509 e837 dd76 64b8 ac73 29b8
000003c0: 2c83 9737 1986 8337 e70b a737 4ee0 b737
000003d0: a727 a637 bc35 8537 006a dfb5 a87e 9237
000003e0: bc26 4037 247f 19ba 9d26 a337 96ba 9337
000003f0: 61ff 42b7 eb9b 28b7 2bc9 e7b5 1123 ce37

shared_layer.res_blocks.0.fc2.bias f4 [128]
-0.041348107 -0.0006700462 -0.0009477537 -0.000975539 -0.01832379 0.10190837 -0.005377619 0.01823365
0.056693826 -0.0017826165 0.080846034 -0.0030701866 -0.008001927 0.01976706 -0.016236398 -0.002282278
0.07297308 -0.0024795036 -0.00088621996 -0.01294664 -0.032543186 -0.0053590653 0.04186225 0.035306852
-0.0022926766 0.033422194 -0.007539756 0.04226961 -0.0020299426 -0.0019362138 -0.005008985 -0.0056266175
-0.019234829 -0.0054156315 -0.0012388004 -0.0061447574 -0.0004887943 -0.002753325 -0.0004064585 0.0009709763
-0.0018891876 -0.0077978563 -0.0027316469 -0.0048378925 -0.017277027 -0.0027134707 0.004334182 9.4330694e-08
-0.010548322 -0.002329321 -0.0063832947 -0.0072266 0.038790878 -0.006231752 -0.0015362694 0.015970392
-0.00025825703 0.05361658 0.11511863 -0.0012384494 -0.0013159062 -0.0021807186 -0.014066888 0.02717943
0.05117997 -0.039164238 -0.013602662 -0.007173549 -0.00050021213 -6.289977e-05 -0.0041110897 -0.00042731277
0.05235637 -0.001382188 -0.0026542642 0.02515002 -9.70871e-07 0.040393747 -0.015582296 -0.00050163164
0.0396517 0.07335054 -0.019095905 -0.0007505947 0.02687426 -0.001030402 -1.8558982e-05 0.012584738
-0.0014506326 0.05162839 0.06486408 -2.78814e-05 0.039470114 -0.0005313862 -0.008891119 -0.00061446603
-0.0025611944 0.0369615 -0.0003354245 -0.007813641 -0.0001522191 -0.00041266432 -0.11408498 -0.00046018537
-0.0020151539 0.024707375 0.039823536 0.0034875963 -0.0008944804 -0.0015292394 0.008250376 -0.010164946
0.08466453 -0.010922366 0.100285016 -0.0035338 0.0022153868 0.03259478 0.1459641 0.018680718
0.0734538 -0.029762207 -4.731337e-06 -0.00354888 -0.00014048838 -0.0025915927 -0.00080707524 -0.0057703382
00000000: a25c 29bd 0aa6 2fba ad72 78ba 50bb 7fba
00000010: c61b 96bc 56b5 d03d bd36 b0bb bc5e 953c
00000020: c937 683d afa6 e9ba 9b92 a53d 2f35 49bb
00000030: 841a 03bc 88ee a13c 3202 85bc 4592 15bb
00000040: e972 953d 2b7f 22bb 3751 68ba 251e 54bc
00000050: 014c 05bd 199b afbb c077 2b3d eb9d 103d
00000060: bb40 16bb b6e5 083d 0f10 f7bb e622 2d3d
00000070: c908 05bb 8ec8 fdba 6922 a4bb 7d5f b8bb
00000080: 5c92 9dbc 9c75 b1bb 3e5f a2ba f659 c9bb
00000090: 6e22 00ba 2171 34bb f019 d5b9 1e89 7e3a
000000a0: 9e9e f7ba 2985 ffbb 6e05 33bb 2f87 9ebb
000000b0: 8d88 8dbc 7cd4 31bb c105 8e3b d992 ca33
000000c0: dfd2 2cbc 86a7 18bb f52a d1bb 1dcd ecbb
000000d0: 2fe3 1e3d ba33 ccbb a65c c9ba 57d4 823c
000000e0: ac66 87b9 0f9d 5b3d 51c3 eb3d 7753 a2ba
000000f0: 7c7a acba 63ea 0ebb ce78 66bc 65a7 de3c
00000100: 17a2 513d ae6a 20bd b3dd 5ebc 1710 ebbb
00000110: ab20 03ba 0fe9 83b8 52b6 86bb f308 e0b9
00000120: a273 563d 892a b5ba 2af3 2dbb 6a07 ce3c
00000130: e04e 82b5 ea73 253d e34c 7fbc ee7f 03ba
00000140: d269 223d cf38 963d 046f 9cbc 8fc3 44ba
00000150: 6827 dc3c 8e0e 87ba 1caf 9bb7 3830 4e3c
00000160: 2723 beba 4a78 533d 75d7 843d dae2 e9b7
00000170: 6aab 213d b94c 0bba 0eac 11bc 1e14 21ba
00000180: b6d9 27bb f164 173d eadb afb9 c904 00bc
00000190: 019d 1fb9 de5a d8b9 63a5 e9bd 0945 f1b9
000001a0: ac10 04bb 1f67 ca3c 011e 233d 2890 643b
000001b0: 907b 6aba c270 c8ba 962c 073c e08a 26bc
000001c0: 9964 ad3d b9f3 32bc 3b62 cd3d 5397 67bb
000001d0: 0630 113b 1b82 053d 9d77 153e 4e08 993c
000001e0: f26e 963d dfcf f3bc e0c1 9eb6 5494 68bb
000001f0: 1050 13b9 b6d7 29bb e791 53ba 1b15 bdbb

shared_layer.res_blocks.0.norm2.weight f4 [128]
0.06970022 0.21625146 0.16270171 0.074673235 0.34503484 0.71587163 0.27186728 0.08880147
0.36309007 0.110693514 0.43370196 0.29359066 0.29849786 0.11618982 0.3634273 0.119333856
0.24828702 0.39495286 0.42576376 0.13806601 0.22095127 0.26247972 0.078283355 0.5503703
0.05942877 0.2581463 0.17862837 0.13945705 0.055322908 0.08079068 0.14096142 0.121371925
0.16615129 0.3083502 0.121965006 0.536748 0.16593422 0.090049766 0.19947925 0.19282307
0.30615994 0.23023155 0.16536094 0.23460005 0.23523958 0.07124903 0.089643925 0.2521547
0.09860692 0.1959086 0.4690827 0.47869262 0.38345286 0.18807453 0.08657872 0.15913717
0.1713176 0.7682866 0.3199558 0.10575302 0.22355527 0.20031303 0.20138292 0.05709741
0.20996262 0.250647 0.13375682 0.3530309 0.2012262 0.08606527 0.084885605 0.16355662
0.08266003 0.15233974 0.1486643 0.11706447 0.23500302 0.20511332 0.33716938 0.14331378
0.08766086 0.31142363 0.26474467 0.3320589 0.26939377 0.115263656 0.06528506 0.08785302
0.11300082 0.42218426 0.43388134 0.16541007 0.31465563 0.07353503 0.4066069 0.16499187
0.09571705 0.24985942 0.21921267 0.10996296 0.076510474 0.10903518 0.6376009 0.29845652
0.38887432 0.2130918 0.092427835 0.08857514 0.19416341 0.23156315 0.12601769 0.43229288
0.57505965 0.4073348 0.6055209 0.2306398 0.13902019 0.13919368 0.54419976 0.056010667
0.34650293 0.45737794 0.08838981 0.13278815 0.22727115 0.42060363 0.09127014 0.38314924
00000000: fdbe 8e3d 0671 5d3e 479b 263e 48ee 983d
00000010: 68a8 b03e 5d43 373f 3032 8b3e 8cdd b53d
00000020: f1e6 b93e 48b3 e23d 2f0e de3e 8451 963e
00000030: b6d4 983e eef4 ed3d 2513 ba3e 4f65 f43d
00000040: f43e 7e3e 4337 ca3e b5fd d93e 2d61 0d3e
00000050: 0d41 623e be63 863e 0653 a03d 11e5 0c3f
00000060: 956b 733d c02b 843e 5bea 363e d4cd 0e3e
00000070: 469a 623d 9675 a53d 3158 103e d891 f83d
00000080: 9023 2a3e 14e0 9d3e cac8 f93d 5168 093f
00000090: a9ea 293e 036c b83d 4a44 4c3e 6973 453e
000000a0: ffc0 9c3e d2c1 6b3e 6154 293e ff3a 703e
000000b0: a5e2 703e 03eb 913d 3c97 b73d 6c1a 813e
000000c0: 6df2 c93d 449c 483e 9c2b f03e 3317 f53e
000000d0: ef53 c43e 9c96 403e 2f50 b13d dbf4 223e
000000e0: e26d 2f3e 6eae 443f 3fd1 a33e 0a95 d83d
000000f0: aceb 643e dc1e 4d3e 5337 4e3e f9de 693d
00000100: 7100 573e ce54 803e 8cf7 083e 77c0 b43e
00000110: 3e0e 4e3e fd42 b03d 81d8 ad3d 637b 273e
00000120: a949 a93d f3fe 1b3e 743b 183e 7fbf ef3d
00000130: a2a4 703e 3a09 523e 77a1 ac3e d9c0 123e
00000140: 8987 b33d eb72 9f3e 9d8c 873e a003 aa3e
00000150: fbed 893e 5a0f ec3d 2cb4 853d 49ec b33d
00000160: f96c e73d 8928 d83e b225 de3e 4261 293e
00000170: 8b1a a13e 8999 963d c82e d03e a1f3 283e
00000180: 4d07 c43d 26db 7f3e 4979 603e 4334 e13d
00000190: 86b1 9c3d d64d df3d d039 233f 4bcf 983e
000001a0: 891a c73e bd34 5a3e ce4a bd3d e266 b53d
000001b0: c6d2 463e e41e 6d3e c80a 013e 7e55 dd3e
000001c0: 1c37 133f 308e d03e 6b03 1b3f d72c 6c3e
000001d0: 4f5b 0e3e ca88 0e3e ad50 0b3f 716b 653d
000001e0: d568 b13e 712d ea3e b705 b53d 9ef9 073e
000001f0: c5b9 683e 5c59 d73e d7eb ba3d 232c c43e
