demo_results/best_model.pth (torch, 62217 bytes, 90 tensors)

dense_block.block.0.norm.weight f4 [8]
0.80790514 1.3614559 0.73705196 0.7900549 0.7503747 0.91285735 0.87428844 0.9098357
00000000: dfd2 4e3f 3044 ae3f 70af 3c3f 0a41 4a3f
00000010: 8e18 403f 05b1 693f 5ed1 5f3f feea 683f

dense_block.block.0.norm.bias f4 [8]
0.02916385 0.51380455 -0.13665432 -0.1931712 -0.16076449 0.3741138 0.2755094 -0.075149775
00000000: 07e9 ee3c b288 033f 1cef 0bbe acce 45be
00000010: 729f 24be d88b bf3e 910f 8d3e 20e8 99bd

dense_block.block.0.fc.weight f4 [4, 8]
-0.007993838 0.6735431 0.017060837 0.22141358 0.06485985 -0.25925532 0.085641496 0.16072804
0.23192862 -0.2092921 -0.012935742 0.16210614 0.06070676 0.11470553 -0.04326238 -0.2616075
0.26825753 -0.006192621 -0.28574958 0.20925765 0.0071590473 0.07314762 -0.28181058 0.3256354
-0.18442734 0.65820515 0.061168116 -0.046242833 0.11451888 -0.33057415 0.35731748 0.005019821
00000000: 96f8 02bc 526d 2c3f 2bc3 8b3c 3eba 623e
00000010: 3ed5 843d 1dbd 84be cf64 af3d e495 243e
00000020: b27e 6d3e ab50 56be 6ff0 53bc 27ff 253e
00000030: a7a7 783d bcea ea3d e533 31bd 6bf1 85be
00000040: 0d59 893e 78eb cabb c54d 92be a347 563e
00000050: 7196 ea3b 6bce 953d 7a49 90be afb9 a63e
00000060: 85da 3cbe 2280 283f 6b8b 7a3d 2069 3dbd
00000070: e088 ea3d 0441 a9be 51f2 b63e 507d a43b

dense_block.block.0.fc.bias f4 [4]
0.15745337 -0.10317445 -0.07092873 0.40389776
00000000: 753b 213e 204d d3bd 1543 91bd b0cb ce3e

dense_block.block.1.norm.weight f4 [12]
0.9655865 1.4869878 0.74801713 0.79649526 0.94472337 1.0226123 1.0194505 0.88520384
0.78992015 0.8391495 1.0790038 0.9271155
00000000: ad30 773f 9e55 be3f 0d7e 3f3f 1de7 4b3f
00000010: 64d9 713f f6e4 823f 5b7d 823f b89c 623f
00000020: 3538 4a3f 80d2 563f cc1c 8a3f 7157 6d3f

dense_block.block.1.norm.bias f4 [12]
-0.08014195 0.18826592 -0.07987162 -0.23249304 -0.039229598 0.27917752 0.22689728 0.059550945
0.01223978 -0.24647042 -0.13787642 0.21514332
00000000: 7621 a4bd c8c8 403e bb93 a3bd a812 6ebe
00000010: 37af 20bd 5bf0 8e3e c357 683e b1eb 733d
00000020: 5c89 483c be62 7cbe 7a2f 0dbe 884e 5c3e

dense_block.block.1.fc.weight f4 [4, 12]
-0.10566769 0.7518623 0.0014981851 0.020323811 -0.04431748 -0.25211722 0.2362821 0.116184376
0.071447894 0.13976662 0.27239087 -0.02243627 0.030763563 0.058877423 -0.45304632 0.09826389
-0.37590307 0.08012103 -0.053505342 0.19344229 0.12252468 0.005128709 0.42452386 -0.24564989
-0.25649786 0.2688975 -0.010827995 -0.0023034227 0.04098293 -0.2741346 0.30354062 0.010210807
0.050999355 0.019274509 0.2920738 -0.3048195 0.2913444 -0.3869074 -0.15389329 -0.24309058
-0.23763575 0.1296782 0.04009662 0.5060878 -0.04325891 -0.225415 -0.11305098 0.053267557
00000000: 4d68 d8bd 0c7a 403f c05e c43a 1f7e a63c
00000010: 3f86 35bd 8215 81be eff3 713e 13f2 ed3d
00000020: 4653 923d fb1e 0f3e d176 8b3e 45cc b7bc
00000030: de03 fc3c 7429 713d b0f5 e7be 943e c93d
00000040: 5e76 c0be 7f16 a43d 6b28 5bbd bc15 463e
00000050: 38ee fa3d bb0e a83b 315b d93e a58b 7bbe
00000060: b053 83be efac 893e e767 31bc 05f5 16bb
00000070: b8dd 273d 5f5b 8cbe ad69 9b3e 3b4b 273c
00000080: b3e4 503d 93e5 9d3c b28a 953e 4d11 9cbe
00000090: 182b 953e ba18 c6be 3496 1dbe bdec 78be
000000a0: c956 73be 5dca 043e 5a3c 243d f88e 013f
000000b0: 4130 31bd 31d3 66be 4687 e7bd 152f 5a3d

dense_block.block.1.fc.bias f4 [4]
0.25091714 -0.12898763 0.18033086 -0.2591535
00000000: 3678 803e 5515 04be a7a8 383e c4af 84be

shared_layer.input_projection.weight f4 [17, 16]
-0.170156 0.26835626 -0.010213726 0.007499718 0.11932554 0.14994471 -0.12228377 -0.011693413
0.34466812 -0.08490448 -0.14550476 0.21223195 -0.22979394 0.0134291025 -0.068529904 0.21010123
0.005864173 -0.17077038 -0.21209916 -0.13766566 -0.21880302 -0.15918452 0.24990222 0.04721874
0.07703993 -0.23317108 -0.16419345 -0.083213955 0.03909278 -0.21998033 -0.10771826 -0.14966714
-0.050616097 -0.14432512 -0.06847158 -0.2207163 -0.22290316 -0.19715767 -0.13688008 -0.24860756
0.1583072 -0.10092507 0.16379052 0.07789552 -0.21169925 0.12169992 -0.068786204 -0.09583151
-0.27070913 -0.31892374 0.002293902 -0.11767522 0.026739793 -0.27966776 0.12483577 -0.25747532
-0.08520447 -0.04151751 0.07459458 0.12506798 0.1453643 -0.16077861 -0.009442529 -0.10753149
0.15978451 -0.28682142 0.39474696 -0.17840344 0.21590184 0.31800508 0.021347195 -0.23599534
0.051952742 0.12530823 0.32440698 -0.18385872 0.0266587 -0.11190219 -0.09599313 0.20094779
-0.0509024 0.06775722 -0.23713358 0.061106376 0.10106876 -0.19735065 -0.031394403 -0.055300865
-0.20138232 0.15272462 -0.060201906 -0.180238 0.13762794 0.17221491 -0.14587836 -0.027966075
0.26827377 0.05280216 0.17808422 -0.051449705 0.032010444 0.17443727 -0.06086809 -0.027605474
0.13745052 0.20764588 0.09843795 -0.050768208 0.0936633 0.003676799 0.025542775 0.4321654
-0.26606908 -0.14043161 0.10353801 0.0019552882 -0.06731911 -0.21840213 -0.25267956 -0.3177493
0.041021444 -0.038096726 0.09581406 0.15417148 -0.098549865 -0.15034062 -0.039454162 0.356428
0.37281242 -0.24987353 0.43435135 -0.09290776 0.043793824 0.5440109 -0.18112859 -0.07011593
0.038733672 0.15368047 0.32553142 0.033456065 0.07539008 -0.28428403 0.011032188 0.09185492
0.03484972 0.107704684 0.03801807 -0.030188493 -0.09134188 -0.28561515 -0.29895678 -0.31990406
0.012116224 -0.17384672 0.009733521 -0.20393123 -0.116715446 -0.15327182 -0.115438655 0.082927704
-0.21150117 0.484492 -0.19414188 -0.06381102 -0.0486107 -0.27448708 0.13117194 -0.041285086
0.22821099 -0.054516125 -0.027370954 0.2116712 0.1659947 -0.08876571 0.23063464 -0.032049485
0.16706079 0.33174953 0.067190506 0.08450499 0.022369444 -0.21043101 0.29297662 -0.14490107
0.1432319 0.26903048 0.35673806 0.10720132 0.052455448 0.090142444 0.25551322 -0.084116444
-0.057722244 -0.058196124 -0.100288466 -0.15670341 -0.09228189 -0.08121087 -0.20167528 0.16215466
0.36691487 -0.25330332 0.002454262 -0.23331693 -0.22228104 -0.113351546 0.21372694 -0.10558248
-0.21630798 -0.075094596 -0.13884163 -0.13646902 -0.04755605 -0.108616844 -0.14166693 -0.17529024
-0.2590393 0.15403798 -0.10004678 0.010655963 -0.1423303 0.02031532 0.1774863 0.11518067
-0.28333014 -0.011981838 0.17510846 0.004970194 0.0774622 0.17745009 -0.11560662 -0.0050993054
-0.23283572 -0.1285952 0.22331841 0.037655134 -0.24623586 -0.1622192 -0.259072 -0.24671942
-0.19290975 -0.06182435 0.16871929 0.04184556 -0.19015136 -0.20055598 0.12436882 -0.18596032
-0.030781865 0.11992651 -0.11570302 -0.027259976 -0.02176112 -0.059145838 -0.12675804 -0.22285959
00000000: 603d 2ebe fe65 893e 7957 27bc 32c0 f53b
00000010: f360 f43d 1b8b 193e ea6f fabd bb95 3fbc
00000020: 5778 b03e 66e2 adbd 33ff 14be 5553 593e
00000030: 1a4f 6bbe bd05 5c3c 6859 8cbd c724 573e
00000040: 4028 c03b 6ede 2ebe 8630 59be 3af8 0cbe
00000050: e60d 60be 4401 23be 5ee6 7f3e 7068 413d
00000060: 1cc7 9d3d 66c4 6ebe 5422 28be 146c aabd
00000070: c01f 203d 8642 61be 649b dcbd 5842 19be
00000080: d352 4fbd f7c9 13be d43a 8cbd 7403 62be
00000090: ba40 64be b3e3 49be 4b2a 0cbe fb92 7ebe
000000a0: 481b 223e ceb1 cebd b4b8 273e b087 9f3d
000000b0: b0c7 58be cf3d f93d c8df 8cbd 5043 c4bd
000000c0: 639a 8abe f949 a3be 4a55 163b b5ff f0bd
000000d0: 690d db3c 9d30 8fbe e5a9 ff3d ced3 83be
000000e0: ae7f aebd 440e 2abd 0bc5 983d d211 003e
000000f0: 61da 143e 26a3 24be d6b4 1abc 7839 dcbd
00000100: 8d9e 233e 42da 92be 461c ca3e 64af 36be
00000110: 5f15 5d3e 90d1 a23e 50e0 ae3c c3a8 71be
00000120: 66cc 543d cd50 003e ac18 a63e 7645 3cbe
00000130: 5963 da3c fa2c e5bd 0c98 c4bd 42c5 4d3e
00000140: 097f 50bd 4cc4 8a3d 25d3 72be ae4a 7a3d
00000150: 23fd ce3d 4a16 4abe 6b97 00bd 2983 62bd
00000160: 2b37 4ebe d863 1c3e 4696 76bd 4f90 38be
00000170: 57ee 0c3e 1b59 303e 2361 15be 1c19 e5bc
00000180: 2e5b 893e 1447 583d b65b 363e edbc 52bd
00000190: 621d 033d af9f 323e d150 79bd e024 e2bc
000001a0: d4bf 0c3e 1fa1 543e d699 c93d 53f2 4fbd
000001b0: 8bd2 bf3d 73f6 703b 153f d13c c944 dd3e
000001c0: 353a 88be 4ecd 0fbe bc0b d43d 4b24 003b
000001d0: 9ade 89bd cfa4 5fbe 375f 81be 09b0 a2be
000001e0: 1a06 283d 500b 1cbd 293a c43d 21df 1d3e
000001f0: 83d4 c9bd e4f2 19be b09a 21bd bb7d b63e
00000200: 45e1 be3e d9de 7fbe 4d63 de3e 6c46 bebd
00000210: 2761 333d 4c44 0b3f c679 39be f198 8fbd
00000220: 33a7 1e3d 6a5e 1d3e 0eac a63e 3a09 093d
00000230: 1d66 9a3d ad8d 91be 5ac0 343c 6f1e bc3d
00000240: 94be 0e3d 4694 dc3d d6b8 1b3d dc4d f7bc
00000250: 7411 bbbd 263c 92be dd10 99be 77ca a3be
00000260: 2083 463c e004 32be 5979 1f3c 59d3 50be
00000270: 8208 efbd 4af3 1cbe 1a6b ecbd 00d6 a93d
00000280: c393 58be 560f f83e 21cd 46be 5aaf 82bd
00000290: 031c 47bd 9289 8cbe f051 063e 8d1a 29bd
000002a0: 24b0 693e 4d4c 5fbd 0d39 e0bc 56c0 583e
000002b0: 84fa 293e ccca b5bd 7d2b 6c3e 5246 03bd
000002c0: fc11 2b3e 13db a93e 2d9b 893d f410 ad3d
000002d0: 2040 b73c 3a7b 57be 0801 963e f260 14be
000002e0: 62ab 123e 5dbe 893e 5fa6 b63e 5e8c db3d
000002f0: 86db 563d 9a9c b83d a1d2 823e 3e45 acbd
00000300: 296e 6cbd 0f5f 6ebd 0a64 cdbd dc76 20be
00000310: 4afe bcbd e251 a6bd f783 4ebe df0b 263e
00000320: 44dc bb3e f9b0 81be afd7 203b a2ea 6ebe
00000330: a49d 63be db24 e8bd 3cdb 5a3e a13b d8bd
00000340: d77f 5dbe 32cb 99bd 802c 0ebe 89be 0bbe
00000350: 22ca 42bd 8272 debd 2311 11be 497f 33be
00000360: cda0 84be 22bc 1d3e 54e5 ccbd 5996 2e3c
00000370: 09bf 11be 506c a63c f8be 353e d8e3 eb3d
00000380: a610 91be 794f 44bc a24f 333e 02dd a23b
00000390: 80a4 9e3d 7ab5 353e 2ac3 ecbd 1318 a7bb
000003a0: 7d6c 6ebe 76ae 03be 95ad 643e 453c 1a3d
000003b0: 4125 7cbe ca1c 26be 16a5 84be 04a4 7cbe
000003c0: 228a 45be 883b 7dbd c0c4 2c3e 4066 2b3d
000003d0: 0ab7 42be 8c5e 4dbe 14b5 fe3d 626c 3ebe
000003e0: 402a fcbc 089c f53d b4f5 ecbd 5050 dfbc
000003f0: 6044 b2bc e842 72bd dccc 01be 4e35 64be

shared_layer.input_projection.bias f4 [17]
-0.0465218 -0.14233613 -0.2766984 -0.06324034 0.077134095 0.10731202 0.075240806 -0.26525977
-0.23603116 -0.08525926 0.38163257 0.25833577 -0.13082345 -0.08804097 -0.26107782 -0.120605856
0.18258992
00000000: a58d 3ebd 90c0 11be 6aab 8dbe 2784 81bd
00000010: 7bf8 9d3d 68c6 db3d da17 9a3d 21d0 87be
00000020: 27b2 71be 689c aebd 5865 c33e 9644 843e
00000030: 95f6 05be d34e b4bd feab 85be 3400 f7bd
00000040: daf8 3a3e

shared_layer.norm_input.weight f4 [17]
0.9605595 0.9853228 1.0329249 0.74303263 1.009921 0.7827894 0.89174193 1.0246984
1.3100995 1.0429078 1.1431111 0.7230606 0.91833323 0.9955128 0.8317449 0.934057
0.82014835
00000000: 3ae7 753f 1d3e 7c3f e236 843f 6337 3e3f
00000010: 1745 813f e364 483f 3349 643f 5129 833f
00000020: 57b1 a73f 017e 853f 7751 923f 801a 393f
00000030: e317 6b3f edd9 7e3f 3ced 543f 5c1e 6f3f
00000040: 3ef5 513f

shared_layer.norm_input.bias f4 [17]
0.038968693 0.026148899 -0.06517686 0.12218876 -0.07511762 -0.018201407 -0.058886997 -0.060920157
-0.20470946 -0.08540614 0.036517285 -0.1827594 0.07164527 -0.014412208 -0.029482147 0.09781545
-0.04236251
00000000: a39d 1f3d 3736 d63c 727b 85bd 1a3e fa3d
00000010: 44d7 99bd 1e1b 95bc 7e33 71bd 6a87 79bd
00000020: 5b9f 51be 6ae9 aebd 2693 153d 4825 3bbe
00000030: c1ba 923d 2f21 6cbc 8b84 f1bc 7753 c83d
00000040: 5084 2dbd

shared_layer.res_blocks.0.fc1.weight f4 [17, 17]
0.051667843 0.100247175 -0.33365765 0.12535354 -0.075134136 0.082384594 0.2845877 -0.07381025
0.19518618 -0.32318944 -0.08460572 0.2820528 -0.15969172 -0.13638611 -0.14174402 0.09532632
0.16417415 0.15774535 -0.08053463 -0.13253747 -0.058459044 0.03450387 -0.036782693 -0.10659137
0.23358406 0.11371654 0.09396739 -0.08037973 -0.30541208 -0.22725743 -0.08646705 -0.046473518
0.1472353 -0.14737803 -0.022354526 0.2968791 0.1501357 0.12817855 -0.08385923 -0.053536434
0.013572103 -0.09314942 -0.08894088 0.056731623 -0.13330875 -0.23740758 0.21368131 0.26422164
0.105354965 0.02638005 -0.2913692 -0.031462718 0.16939819 0.20284171 0.02107024 -0.09797805
0.05995473 -0.15526475 0.24595657 0.0013692626 0.065174825 -0.11270058 -0.0405931 0.019112349
0.25415325 0.07273595 0.30744144 0.13528964 -0.059491854 -0.12698789 0.2536936 0.14838445
-0.10085148 -0.015681943 -0.25577828 -0.14450303 0.100632414 0.107338935 -0.009784227 -0.091196656
0.27515557 0.10410559 -0.12946633 0.047660146 3.5425754e-05 0.17641918 -0.061211493 0.21237175
-0.08731479 -0.13549936 -0.13888043 0.17150724 0.26855177 0.24059731 0.20092039 0.15843332
-0.084771745 -0.057967264 0.20165241 -0.025757274 -0.05337425 -0.18538177 0.1350599 0.22487727
-0.018078221 -0.10540837 -0.061933927 -0.08064158 -0.24027279 0.23598824 0.054123655 0.3132122
0.13976632 -0.010365055 0.17399967 0.14735124 0.07893429 0.085815564 -0.0668636 0.05304962
0.198692 -0.121614106 -0.15461595 0.024269545 -0.26770508 0.08822697 0.15701395 0.26835245
0.07629805 -0.1265733 -0.049140792 -0.10339944 -0.051666424 -0.0117173465 -0.25011307 0.084903106
-0.123339616 -0.0996003 -0.20538144 0.18648426 -0.35009205 0.2966952 -0.12237199 -0.035605934
0.15290104 -0.0017869375 0.14108439 0.14429824 -0.16179912 0.12505294 0.009368099 0.10686717
0.051412556 0.1589997 -0.00991762 0.08129476 0.20198178 0.07682589 -0.050820123 -0.29425085
0.09318497 -0.04769397 0.27420688 -0.22495577 -0.03539337 0.022745967 0.12713042 0.29981443
0.096973486 0.023745252 0.19928028 0.22552976 -0.07091218 -0.026289213 0.13596684 -0.09843931
0.07946789 -0.013312297 -0.12282976 0.11915876 -0.013355314 0.0395715 0.299356 0.20077278
0.29530266 0.07773939 -0.2268385 -0.2213953 -0.29374963 -0.3346939 -0.12118737 -0.31108215
-0.14617997 -0.065363854 -0.38273233 -0.4115198 -0.016279537 0.41395912 0.056880996 -0.1813226
-0.0028411087 -0.2621938 -0.24602066 0.29654586 -0.15011689 0.11119206 0.28648695 0.0011291786
-0.017638447 -0.059260767 -0.050076485 0.09438195 0.119581185 0.17194788 0.13459449 -0.112648584
0.09236888 -0.03956455 -0.108004294 0.062114827 -0.2983589 0.09206802 0.031986054 -0.14803146
0.054635372 -0.18615532 -0.1272097 0.0163923 -0.17886332 -0.115548775 -0.017653635 0.107080214
0.22062017 0.13078965 -0.16009231 -0.0951402 0.21787429 0.11909188 -0.027280958 -0.016887011
-0.24765398 -0.093830265 0.24028838 -0.11475269 0.04086123 -0.22137192 -0.1910176 -0.03574538
-0.062387336 -0.020719193 0.047972586 -0.25842962 0.086189084 -0.20054486 -0.0509374 0.07451887
00000000: a9a1 533d 644e cd3d 2dd5 aabe ae5c 003e
00000010: eddf 99bd 41b9 a83d 7bb5 913e d429 97bd
00000020: e3de 473e 1679 a5be c445 adbd 3969 903e
00000030: 3a86 23be cda8 0bbe 5825 11be 723a c33d
00000040: 451d 283e ff87 213e 57ef a4bd e7b7 07be
00000050: c072 6fbd ee53 0d3d 73a9 16bd 944c dabd
00000060: a930 6f3e 38e4 e83d fa71 c03d 219e a4bd
00000070: f95e 9cbe 2cb6 68be a315 b1bd 045b 3ebd
00000080: dac4 163e 44ea 16be d720 b7bc 8a00 983e
00000090: 2cbd 193e 3d41 033e 63be abbd 0549 5bbd
000000a0: 875d 5e3c 20c5 bebd a326 b6bd 6b5f 683d
000000b0: 1782 08be f91a 73be 46cf 5a3e 0f48 873e
000000c0: 58c4 d73d fa1a d83c 582e 95be 0ddf 00bd
000000d0: b876 2d3e bdb5 4f3e 7f9b ac3c b7a8 c8bd
000000e0: 1793 753d b9fd 1ebe 0adc 7b3e d478 b33a
000000f0: 617a 853d 90cf e6bd f344 26bd 8091 9c3c
00000100: 6020 823e 96f6 943d f768 9d3e 5e89 0a3e
00000110: bbad 73bd 1d09 02be 21e4 813e 18f2 173e
00000120: 398b cebd 6b77 80bc 5ff5 82be 9af8 13be
00000130: 5e18 ce3d 84d4 db3d 064e 20bc 50c5 babd
00000140: 31e1 8c3e 5035 d53d d292 04be 4937 433d
00000150: 1d96 1438 3ba7 343e e7b8 7abd fb77 593e
00000160: 19d2 b2bd 58c0 0abe ac36 0ebe 989f 2f3e
00000170: 9e7f 893e 245f 763e 13be 4d3e 583c 223e
00000180: cf9c adbd 156f 6dbd f87d 4e3e eb00 d3bc
00000190: f59e 5abd b8d4 3dbe 244d 0a3e 3a46 663e
000001a0: c718 94bc 58e0 d7bd 6eae 7dbd 6a27 a5bd
000001b0: 120a 76be e7a6 713e c4b0 5d3d 595d a03e
000001c0: e71e 0f3e 31d2 29bc f82c 323e 3ee3 163e
000001d0: 4da8 a13d 12c0 af3d c8ef 88bd 8f4a 593d
000001e0: ea75 4b3e d110 f9bd a553 1ebe edd0 c63c
000001f0: a410 89be 57b0 b43d 44c8 203e 7e65 893e
00000200: 2742 9c3d 6e9c 01be db47 49bd 16c3 d3bd
00000210: 2ca0 53bd 1dfa 3fbc d20e 80be aee1 ad3d
00000220: 7b99 fcbd 3efb cbbd 834f 52be bbf5 3e3e
00000230: 443f b3be 6fe8 973e 2a9e fabd 87d7 11bd
00000240: 1792 1c3e ac37 eaba 6d78 103e ebc2 133e
00000250: abae 25be e10d 003e a87c 193c 2ddd da3d
00000260: f995 523d d1d0 223e 837d 22bc de7d a63d
00000270: 50d4 4e3e e456 9d3d c328 50bd 0ca8 96be
00000280: c3d7 be3d c15a 43bd d864 8c3e ce5a 66be
00000290: a3f8 10bd c055 ba3c 7a2e 023e 4781 993e
000002a0: 099a c63d 6785 c23c 2110 4c3e 46f1 663e
000002b0: 683a 91bd 7a5c d7bc e43a 0b3e 8d9a c9bd
000002c0: 10c0 a23d d21b 5abc 2b8e fbbd 8209 f43d
000002d0: 3fd0 5abc ba15 223d 3145 993e 6197 4d3e
000002e0: e931 973e d435 9f3d 5a48 68be 73b5 62be
000002f0: 5a66 96be 005d abbe 1531 f8bd 2946 9fbe
00000300: 34b0 15be 7cdd 85bd 7ef5 c3be b9b2 d2be
00000310: aa5c 85bc 73f2 d33e 0cfc 683d a2ac 39be
00000320: e531 3abb 443e 86be d7ec 7bbe dcd4 973e
00000330: 3eb8 19be aab8 e33d 6bae 923e f200 943a
00000340: 817e 90bc 6bbb 72bd 001d 4dbd 534b c13d
00000350: fbe6 f43d 1b13 303e 23d3 093e 4db4 e6bd
00000360: e52b bd3d 700e 22bd 5b31 ddbd 1e6c 7e3d
00000370: 7fc2 98be 288e bc3d cf03 033d 8f95 17be
00000380: 57c9 5f3d 809f 3ebe 4243 02be 2549 863c
00000390: f227 37be d6a4 ecbd 5b9e 90bc df4c db3d
000003a0: 41ea 613e b9ed 053e 3def 23be ddd8 c2bd
000003b0: 701a 5f3e 72e6 f33d 517c dfbc a156 8abc
000003c0: 0199 7dbe 152a c0bd 280e 763e 7503 ebbd
000003d0: 1b5e 273d 52af 62be 1e9a 43be bf69 12bd
000003e0: dd89 7fbd 4cbb a9bc e77e 443d e350 84be
000003f0: e783 b03d a25b 4dbe bca3 50bd 599d 983d

shared_layer.res_blocks.0.fc1.bias f4 [17]
0.184073 -0.05815463 0.06575024 -0.28245765 -0.09062289 0.016793292 0.1469367 0.15341574
-0.21229728 0.07943592 -0.090040214 0.08387748 -0.3001127 -0.02069368 0.215657 0.065983325
0.061670203
00000000: a27d 3c3e 8d33 6ebd 10a8 863d 4a9e 90be
00000010: 7e98 b9bd 1692 893c 9376 163e 0419 1d3e
00000020: 7564 59be 4daf a23d 0167 b8bd f5c7 ab3d
00000030: 5fa8 99be cb85 a9bc 30d5 5c3e 4422 873d
00000040: e599 7c3d

shared_layer.res_blocks.0.norm1.weight f4 [17]
1.0677714 0.9870806 1.1404568 1.0720983 1.0065935 0.9686847 1.0474621 0.7733331
0.8790891 1.0792803 1.0357217 1.2284544 1.0052915 0.87986505 0.8271545 0.80358034
1.0755169
00000000: bcac 883f 50b1 7c3f 7dfa 913f 843a 893f
00000010: 0ed8 803f b8fb 773f 3d13 863f 28f9 453f
00000020: fc0b 613f db25 8a3f 8792 843f fe3d 9d3f
00000030: 64ad 803f d63e 613f 66c0 533f 71b7 4d3f
00000040: 8aaa 893f

shared_layer.res_blocks.0.norm1.bias f4 [17]
0.10524 0.0033306687 -0.13997719 -0.07764856 -0.03756443 -0.08861686 -0.11978595 0.09629087
-0.008408209 -0.08522163 -0.0121945515 0.17456223 0.00014415372 -0.016509533 0.048897248 0.072728746
0.14451264
00000000: 1288 d73d 5947 5a3b 2e56 0fbe 3506 9fbd
00000010: 29dd 19bd c27c b5bd 5652 f5bd 2634 c53d
00000020: 96c2 09bc ae88 aebd a8cb 47bc 71c0 323e
00000030: f827 1739 003f 87bc 7b48 483d cff2 943d
00000040: 1ffb 133e

shared_layer.res_blocks.0.fc2.weight f4 [17, 17]
0.16652249 -0.200335 0.147668 -0.2615429 -0.11405454 -0.3567472 -0.1622002 -0.073614396
0.30026302 -0.006555965 0.115992524 0.18275654 0.073001064 0.30386597 0.13496791 -0.026484007
0.1229888 0.30013478 -0.235714 -0.27200505 -0.3094169 -0.057156183 -0.2990822 -0.027642483
-0.040374406 -0.311381 0.020951968 -0.14332536 0.23813479 0.0043806294 -0.21636409 0.29676586
0.18640563 0.18383242 -0.29878524 -0.031510532 -0.019120825 -0.010289884 0.1287427 0.1994208
0.29547322 -0.054990213 -0.01274294 0.17587025 -0.14175054 -0.24565312 -0.069842495 0.09381009
-0.17199495 -0.2895124 0.08338926 0.028793985 0.2895395 -0.09800231 -0.08498364 0.223156
0.13990714 0.14277485 0.109729886 0.010804023 0.32441726 -0.06641821 -0.15881616 0.24052818
-0.21012665 -0.08729999 0.17553383 0.11604876 -0.046723425 0.026257541 0.08960902 0.38600335
-0.016237553 -0.080341876 0.09371305 -0.098890714 0.28935507 -0.135356 0.026186664 -0.061137084
-0.039355844 -0.24131255 0.05331969 0.12581848 -0.20209321 -0.20470636 0.27045637 0.122216016
0.09679911 -0.1302527 -0.08772682 0.014942083 -0.0071407473 -0.1659358 0.137473 0.15403117
-0.13345304 0.04464508 -0.17938122 0.08870477 -0.0072260783 -0.097177014 -0.3123054 0.18701537
0.1446524 -0.035933997 0.32398942 -0.0076602865 0.2488472 0.16588382 -0.121587195 0.0998411
-0.23488438 -0.13509785 0.049304772 -0.08898087 0.16119587 0.01753982 0.018031452 -0.32710794
0.26749194 0.04657629 -0.066522464 0.14993948 0.19715 0.31972653 -0.0103535075 -0.023970665
0.026204407 0.15603837 -0.05622369 0.26520362 -0.18676841 0.051188603 0.10582267 -0.090785824
0.009004726 0.22384825 0.33827448 0.026532665 0.031641353 0.045644827 0.17234002 0.1409307
-0.002438246 0.19915992 0.03643516 0.048086282 0.137722 -0.28429028 -0.31061816 -0.15721351
0.007076729 -0.2133501 0.09711804 0.16669014 -0.024240047 0.2078783 -0.11366151 -0.11320219
-0.11074144 -0.0029012954 -0.09682232 0.14702365 -0.12429201 0.23056404 0.113288455 0.00461108
-0.14358029 -0.16803835 0.078846484 -0.11111351 0.12514345 0.15304872 0.0990144 0.29426837
0.25197536 0.0439184 -0.1587785 0.29394504 -0.009107056 -0.20557098 0.2031177 0.1812699
0.09124065 -0.04995198 -0.3465564 -0.045971602 0.18401425 0.014826458 0.006177864 -0.08297913
-0.06933122 0.07709422 -0.11879097 0.02310688 -0.009660463 0.056653757 0.27883133 0.022142015
0.120833196 0.118366584 0.17057891 0.43765253 -0.12990631 -0.048283122 0.17827532 0.11265778
-0.0075568096 0.05781839 0.10790225 0.2594369 -0.021439925 0.05469319 0.08802362 -0.13396995
-0.01166594 0.1943709 0.15062656 0.008823623 -0.08866955 -0.003792322 0.16983266 -0.21438912
0.04226313 0.013518914 0.032871485 -0.12972404 0.12059298 0.16317844 0.1983865 0.3349297
-0.17531538 0.005893665 0.005614582 0.0077641797 -0.12381198 -0.2046697 0.04748165 -0.054221403
0.011733362 0.28278568 0.027000459 0.006567179 0.15816371 -0.04252354 0.106869735 0.20546007
-0.028812435 -0.25546473 -0.040290233 0.009208557 -0.06583692 -0.076268405 0.059550986 0.22128311
00000000: df84 2a3e 9e24 4dbe 4836 173e f3e8 85be
00000010: 6d95 e9bd 92a7 b6be cf17 26be 25c3 96bd
00000020: 13bc 993e 6cd3 d6bb 7d8d ed3d 8824 3b3e
00000030: 9581 953d 5294 9b3e 0735 0a3e fdf4 d8bc
00000040: 8de1 fb3d 44ab 993e 035f 71be 3f44 8bbe
00000050: e46b 9ebe 9a1c 6abd 4d21 99be 7d72 e2bc
00000060: a25f 25bd 556d 9fbe 76a3 ab3c e2c3 12be
00000070: 9bd9 733e 628b 8f3b 8c8e 5dbe b2f1 973e
00000080: 1ee1 3e3e 913e 3c3e 61fa 98be 3011 01bd
00000090: 47a3 9cbc e796 28bc 20d5 033e f734 4c3e
000000a0: 4448 973e 6b3d 61bd c4c7 50bc 5517 343e
000000b0: 0e27 11be 7e8c 7bbe 9509 8fbd 811f c03d
000000c0: 721f 30be f83a 94be fdc7 aa3d 5de1 eb3c
000000d0: 853e 943e 6fb5 c8bd e70b aebd 0283 643e
000000e0: d143 0f3e 9233 123e 10ba e03d 5b03 313c
000000f0: 051a a63e 4506 88bd b4a0 22be 054d 763e
00000100: 712b 57be 56ca b2bd 24bf 333e f9aa ed3d
00000110: 1061 3fbd 0e1a d73c ef84 b73d 3ba2 c53e
00000120: 9e04 85bc 488a a4bd a1ec bf3d 3787 cabd
00000130: 5926 943e c39a 0abe 6a85 d63c e16a 7abd
00000140: 9833 21bd a31a 77be bf65 5a3d 8fd6 003e
00000150: 86f1 4ebe 8b9e 51be 4279 8a3e 644c fa3d
00000160: 9d3e c63d f760 05be 1eaa b3bd a3cf 743c
00000170: eefc e9bb 13eb 29be b9c5 0c3e 59ba 1d3e
00000180: eaa7 08be c2dd 363d b6af 37be d9aa b53d
00000190: bdc8 ecbb be04 c7bd 7ee6 9fbe f580 3f3e
000001a0: c21f 143e 872f 13bd f1e1 a53e 2403 fbbb
000001b0: cdd1 7e3e 73dd 293e b502 f9bd 7e79 cc3d
000001c0: 8885 70be 1757 0abe cdf3 493d 9a3b b6bd
000001d0: 8810 253e abaf 8f3c b2b6 933c b17a a7be
000001e0: b4f4 883e c8c6 3e3d ee3c 88bd bc89 193e
000001f0: b1e1 493e 32b3 a33e c2a1 29bc 215e c4bc
00000200: a0aa d63c 86c8 1f3e d04a 66bd c5c8 873e
00000210: 3840 3fbe 24ab 513d 8eb9 d83d ebed b9bd
00000220: 8f88 133c 7a38 653e 5032 ad3e 085b d93c
00000230: 5d9a 013d 12f6 3a3d e779 303e 2350 103e
00000240: fbca 1fbb 94f0 4b3e 093d 153d 1ff6 443d
00000250: ff06 0d3e 7f8e 91be 5809 9fbe 94fc 20be
00000260: e8e3 e73b 7378 5abe d3e5 c63d d2b0 2a3e
00000270: 1093 c6bc 0dde 543e 5ec7 e8bd 8dd6 e7bd
00000280: 68cc e2bd a923 3ebb c84a c6bd 5e8d 163e
00000290: cf8c febd fb18 6c3e c703 e83d 8b18 973b
000002a0: b606 13be 3f12 2cbe 447a a13d 7b8f e3bd
000002b0: 9b25 003e ceb8 1c3e 10c8 ca3d 58aa 963e
000002c0: ea02 813e c8e3 333d d596 22be f77f 963e
000002d0: c335 15bc 3381 52be 16fe 4f3e d19e 393e
000002e0: 61dc ba3d 739a 4cbd d76f b1be b84c 3cbd
000002f0: 3b6e 3c3e acea 723c ae6f ca3b f6f0 a9bd
00000300: 87fd 8dbd 93e3 9d3d ae48 f3bd a44a bd3c
00000310: eb46 1ebc c50d 683d fbc2 8e3e 2c63 b53c
00000320: 6577 f73d 2e6a f23d 3dac 2e3e fe13 e03e
00000330: 2906 05be 86c4 45bd ce8d 363e 1fb9 e63d
00000340: 1d9f f7bb fad2 6c3d dbfb dc3d ead4 843e
00000350: c8a2 afbc f705 603d ba45 b43d 6b2f 09be
00000360: 8022 3fbc 2a09 473e d93d 1a3e f590 103c
00000370: 6298 b5bd 9b88 78bb 9de8 2d3e d288 5bbe
00000380: 1b1c 2d3d 6f7e 5d3c 40a4 063d 61d6 04be
00000390: 74f9 f63d 4018 273e d525 4b3e e87b ab3e
000003a0: e085 33be a51f c13b 87fa b73b a96a fe3b
000003b0: 2391 fdbd ef94 51be 1e7c 423d 4317 5ebd
000003c0: 4a3d 403c 49c9 903e 1130 dd3c 7e31 d73b
000003d0: abf5 213e 2a2d 2ebd 85de da3d 2064 523e
000003e0: 0e08 ecbc 46cc 82be 5f07 25bd 7ddf 163c
000003f0: 82d5 86bd 9c32 9cbd bceb 733d 0a98 623e

shared_layer.res_blocks.0.fc2.bias f4 [17]
0.13511911 0.036786005 0.155189 -0.12844157 -0.19433577 0.13742629 0.115371644 0.120178446
-0.08126975 -0.19883332 0.12509413 0.24817216 -0.3313725 -0.0455289 -0.26114193 0.21644945
0.073540434
00000000: aa5c 0a3e ecac 163d dde9 1e3e 3086 03be
00000010: f5ff 46be 7ab9 0c3e f847 ec3d 1e20 f63d
00000020: c170 a6bd f69a 4bbe ad18 003e d820 7e3e
00000030: a8a9 a9be 837c 3abd 65b4 85be eda4 5d3e
00000040: 5e9c 963d

shared_layer.res_blocks.0.norm2.weight f4 [17]
0.8371335 0.80409515 0.9764248 1.0110059 1.0010368 0.8975071 0.88111275 0.9229563
1.097372 0.9900948 0.77904767 0.9254772 0.68731356 0.8796391 0.95809376 0.9492941
1.0552896
00000000: 624e 563f 2ed9 4d3f faf6 793f a468 813f
00000010: f921 803f 06c3 653f 9b90 613f dd46 6c3f
00000020: b076 8c3f da76 7d3f ab6f 473f 13ec 6c3f
00000030: c8f3 2f3f 0730 613f a245 753f f004 733f
00000040: bb13 873f

shared_layer.res_blocks.0.norm2.bias f4 [17]
-0.048689436 -0.08441039 -0.05338789 -0.016407039 -0.115720145 0.046023123 0.020766396 -0.04706663
-0.14214748 -0.0395771 0.15599564 -0.04139802 0.088705435 0.052214865 0.025829842 -0.04299353
-0.14518635
00000000: 936e 47bd 5bdf acbd 43ad 5abd 0e68 86bc
00000010: affe ecbd be82 3c3d 4a1e aa3c f0c8 40bd
00000020: 1c8f 11be 991b 22bd 52bd 1f3e f890 29bd
00000030: 32ab b53d 41df 553d 1b99 d33c fc19 30bd
00000040: bbab 14be

shared_layer.res_blocks.1.fc1.weight f4 [17, 17]
-0.15584318 -0.10068338 0.19048326 -0.032667294 -0.12698978 0.13531153 0.005848852 0.08185895
0.15036526 0.06473264 -0.31525937 0.022721272 -0.09776934 -0.037121482 0.2077694 -0.19686423
-0.058828644 -0.1727146 -0.053754073 -0.05368539 0.04104881 0.015393056 -0.092813596 -0.2278974
0.030769669 0.08905155 0.20157602 -0.05876041 -0.050413605 0.1784634 0.15808934 -0.144217
-0.21268809 -0.29686746 -0.14336535 0.07450785 0.04359887 0.17810835 -0.0020728628 0.03752247
-0.11251032 0.23241699 -0.035696324 0.04595239 -0.15726732 -0.08992551 0.16037261 0.17145298
-0.055053 -0.05987401 -0.11864548 -0.3936005 0.089199804 0.048766978 0.14101113 -0.15869074
-0.29400486 -0.008770623 0.12800819 0.0035393178 -0.12038378 0.3402501 -0.04034084 0.13232927
-0.13716151 0.24170269 -0.0126226675 0.021644522 -0.029613964 0.028551122 -0.30367178 -0.30486375
0.151443 0.061152425 0.32702234 -0.2230324 -0.02494481 -0.23159745 0.09570358 0.25660658
0.23243208 0.091554895 0.0819756 0.1153408 0.14062238 -0.25352392 0.2242355 -0.035716023
0.0413338 -0.15189168 0.020001346 -0.16369107 -0.04548415 -0.07418938 -0.24406707 0.09613129
0.06543766 0.08505192 0.070446014 -0.07432476 -0.40902638 0.033829328 0.15148677 -0.124099635
0.10002651 0.19684544 0.01725153 -0.06281183 0.14317222 0.06619631 0.18587224 -0.07107517
0.052962437 -0.2682098 0.29271805 -0.01701391 0.22767198 -0.041866705 -0.030313877 0.06312854
0.07396252 -0.094281055 -0.17421718 -0.02398216 -0.015998958 0.05108882 0.048296727 -0.056156296
0.22181068 0.13933922 0.0472996 -0.22468953 -0.13938536 0.056690626 -0.30417067 0.21847764
-0.33892167 0.17675357 0.26167715 0.15550433 0.03443668 -0.14703427 0.16970351 -0.035908226
-0.14129631 0.2926104 -0.14494263 -0.112030394 0.2573757 -0.09639552 -0.08100687 -0.033220377
-0.12618202 -0.024118247 -0.19807296 0.040922392 -0.0136916395 -0.13317426 -0.12007268 0.05894861
0.12411683 -0.09177909 0.22613706 0.15776698 -0.058746614 -0.13330337 0.10925739 0.22624943
0.064282924 -0.27828875 0.17532666 -0.012691078 0.16150261 0.2310706 0.12564047 -0.23310877
0.14827956 -0.2011789 -0.036035053 -0.13496521 0.022147957 -0.0049509206 0.026134906 -0.05843753
0.0077017345 0.20390412 0.27996033 0.059253294 -0.024963213 0.30579075 0.051211502 0.025605772
0.23246148 -0.23746902 -0.10312031 0.030210843 0.06428003 -0.043630973 -0.067820445 0.16828853
0.24565822 0.01753089 0.080074504 0.092084415 -0.010161701 -0.07873476 -0.3725481 -0.27214
-0.112337336 -0.09150644 -0.016690522 -0.27721608 -0.23697802 -0.29101476 0.2735933 0.119566
-0.26306084 -0.07154883 -0.22455928 0.33575326 0.2515837 0.11910643 -0.15617391 0.22644652
0.24946581 -0.1656444 0.2937793 0.10758342 0.100004494 0.21295977 0.0034181303 -0.13760059
-0.04807328 0.15890685 -0.11017727 0.21269995 -0.20871864 0.16671744 0.36419588 0.0985069
-0.2702024 0.010608116 0.13180235 0.051331956 0.124928 0.107216164 -0.14640059 -0.17039928
-0.0064596753 0.12384602 0.043014295 -0.20105794 -0.16071449 0.1548573 -0.017170824 0.2132035
00000000: 5b95 1fbe 1733 cebd 0b0e 433e 24ce 05bd
00000010: 9c09 02be 1b8f 0a3e baa7 bf3b aaa5 a73d
00000020: 5af9 193e 8c92 843d ad69 a1be f621 ba3c
00000030: 4b3b c8bd b20c 18bd 80c1 543e c796 49be
00000040: 4ef6 70bd 19dc 30be 3b2d 5cbd 36e5 5bbd
00000050: cc22 283d 2833 7c3c 0e15 bebd f05d 69be
00000060: ac10 fc3c a960 b63d f269 4e3e c1ae 70bd
00000070: 7f7e 4ebd 1cbf 363e 2ce2 213e 9fad 13be
00000080: e8ca 59be 03ff 97be 5ece 12be 9297 983d
00000090: bb94 323d 0962 363e ded8 07bb 29b1 193d
000000a0: d06b e6bd b8fe 6d3e 4f36 12bd 9338 3c3d
000000b0: af0a 21be de2a b8bd b838 243e 5f91 2f3e
000000c0: 417f 61bd 733e 75bd 67fc f2bd 0186 c9be
000000d0: 63ae b63d e2bf 473d 3965 103e d37f 22be
000000e0: ce87 96be a9b2 0fbc 9414 033e e6f3 673b
000000f0: c58b f6bd 4335 ae3e 703c 25bd 5381 073e
00000100: 1174 0cbe e980 773e 4ecf 4ebc da4f b13c
00000110: fc98 f2bc 0be4 e93c de7a 9bbe 1a17 9cbe
00000120: e013 1b3e f77a 7a3d 796f a73e 9b62 64be
00000130: 0f59 ccbc e227 6dbe 3d00 c43d f061 833e
00000140: ad02 6e3e 2281 bb3d d3e2 a73d cc37 ec3d
00000150: 50ff 0f3e e3cd 81be fe9d 653e f74a 12bd
00000160: a14d 293d 7e89 1bbe ddd9 a33c a29e 27be
00000170: 974d 3abd 9af0 97bd b8ec 79be 7be0 c43d
00000180: 2e04 863d b32f ae3d 0046 903d 9437 98bd
00000190: e86b d1be 9f90 0a3d 591f 1b3e f327 febd
000001a0: b3da cc3d da91 493e 1553 8d3c 7da3 80bd
000001b0: bd9b 123e ee91 873d 4b55 3e3e dc8f 91bd
000001c0: 24ef 583d cb52 89be 24df 953e c160 8bbc
000001d0: d822 693e 6c7c 2bbd cf54 f8bc 8949 813d
000001e0: a979 973d 6d16 c1bd fd65 32be 3c76 c4bc
000001f0: 3f10 83bc 8342 513d cad2 453d 2504 66bd
00000200: 5722 633e f1ae 0e3e 3abd 413d 0315 66be
00000210: 09bb 0ebe 6e34 683d 42bc 9bbe 9ab8 5f3e
00000220: 2487 adbe e3fe 343e 8cfa 853e 873c 1f3e
00000230: 7a0d 0d3d 2790 16be c2c6 2d3e 8114 13bd
00000240: fbaf 10be 08d1 953e d76b 14be 3170 e5bd
00000250: bfc6 833e 046b c5bd eee6 a5bd 1712 08bd
00000260: dc35 01be a193 c5bc a3d3 4abe 3d9e 273d
00000270: e652 60bc d55e 08be aae8 f5bd 1974 713d
00000280: f730 fe3d adf6 bbbd 7990 673e ab8d 213e
00000290: 4aa0 70bd ae80 08be 57c2 df3d eead 673e
000002a0: c4a6 833d dd7b 8ebe d588 333e 3dee 4fbc
000002b0: f160 253e c59d 6c3e e5a7 003e 11b4 6ebe
000002c0: 99d6 173e d701 4ebe 7e99 13bd 5234 0abe
000002d0: a26f b53c 553b a2bb df18 d63c 315c 6fbd
000002e0: d55e fc3b 3ecc 503e f656 8f3e 95b3 723d
000002f0: a77f ccbc 9b90 9c3e 27c3 513d 32c3 d13c
00000300: 620a 6e3e 142b 73be be30 d3bd bb7c f73c
00000310: 40a5 833d 64b6 32bd 72e5 8abd d453 2c3e
00000320: d48d 7b3e f19c 8f3c 1afe a33d c196 bc3d
00000330: 437d 26bc b13f a1bd a0be bebe ef55 8bbe
00000340: 1e11 e6bd ba67 bbbd 90ba 88bc 44ef 8dbe
00000350: 5eaa 72be e3ff 94be 6c14 8c3e 05df f43d
00000360: e9af 86be 3188 92bd def2 65be dae7 ab3e
00000370: 94cf 803e 12ee f33d 0eec 1fbe 99e1 673e
00000380: f773 7f3e b09e 29be 3e6a 963e b254 dc3d
00000390: 28cf cc3d 2012 5a3e b602 603b 2be7 0cbe
000003a0: 7de8 44bd 7ab8 223e 9fa4 e1bd 04ce 593e
000003b0: 57ba 55be fab7 2a3e e277 ba3e fcbd c93d
000003c0: f857 8abe aacd 2d3c 32f7 063e 7541 523d
000003d0: 40da ff3d 2694 db3d 09ea 15be 267d 2ebe
000003e0: afab d3bb fba2 fd3d c22f 303d 22e2 4dbe
000003f0: 5792 24be e992 1e3e d4a9 8cbc 0552 5a3e

shared_layer.res_blocks.1.fc1.bias f4 [17]
-0.026956104 -0.023750111 -0.26289803 -0.051470872 0.09575467 -0.17053393 -0.26536557 0.18267673
0.07660154 -0.32198447 0.067249276 0.00017362926 0.40910944 0.034178875 0.30736375 -0.075697206
0.18524055
00000000: 0cd3 dcbc 988f c2bc 929a 86be 1fd3 52bd
00000010: 061b c43d 72a0 2ebe ffdd 87be 9c0f 3b3e
00000020: 45e1 9c3d 26db a4be fdb9 893d 4010 3639
00000030: cb76 d13e 26ff 0b3d c85e 9d3e 2307 9bbd
00000040: b3af 3d3e

shared_layer.res_blocks.1.norm1.weight f4 [17]
0.9194008 0.86971265 0.86152524 0.8172007 1.0371099 0.9204798 1.1638755 0.89365435
0.832708 1.1324891 0.84948915 0.7791763 1.1885847 0.9689768 1.0865442 0.8889509
0.8509926
00000000: da5d 6b3f 7da5 5e3f eb8c 5c3f 1134 513f
00000010: 04c0 843f 90a4 6b3f dff9 943f 88c6 643f
00000020: 5a2c 553f 67f5 903f 1f78 593f 1978 473f
00000030: 8b23 983f dd0e 783f e113 8b3f 4992 633f
00000040: a7da 593f

shared_layer.res_blocks.1.norm1.bias f4 [17]
0.076678306 0.072228454 0.13844891 0.12422609 0.121917464 0.0031959934 -0.15963827 -0.06686847
0.045921147 -0.14785779 0.08151972 0.09739722 0.2303108 0.03810367 0.15133029 0.11172211
0.07550056
00000000: 8409 9d3d 83ec 933d 8dc5 0d3e 406a fe3d
00000010: ddaf f93d df73 513b 3778 23be 56f2 88bd
00000020: d017 3c3d 0868 17be d0f3 a63d 3278 c73d
00000030: 98d6 6b3e 9812 1c3d 54f6 1a3e 90ce e43d
00000040: 0aa0 9a3d

shared_layer.res_blocks.1.fc2.weight f4 [17, 17]
0.22274545 -0.23741882 -0.18185998 0.030170297 0.05159236 -0.03243629 0.094395034 0.18621184
0.14084135 -0.13332842 -0.05423185 0.26034108 -0.23606539 0.052464195 -0.11175642 0.019414037
0.31101084 -0.005770262 -0.086274035 0.16008043 -0.12710357 -0.09321681 0.058270752 -0.2760787
0.3291942 -0.12282486 0.06546313 -0.062762275 -0.039074037 -0.21980648 -0.27572888 0.12763222
0.29585335 -0.1056798 0.054584432 -0.113780335 0.0031638248 0.2468029 0.15616101 -0.22542419
0.19030619 0.040532663 0.038740925 0.44586524 0.1346812 -0.10075106 -0.25116706 0.00054179213
0.04741531 -0.08249118 0.007983447 -0.11817619 0.097375244 -0.19072075 -0.07175725 -0.017832424
-0.06410864 0.15870027 0.0066794446 0.20596218 0.057657525 -0.1507327 0.06491775 0.012338992
-0.0539093 -0.18805072 0.08236719 -0.26714805 0.14557064 0.14208996 -0.11871033 -0.11300121
-0.18373865 0.19158678 0.30164376 -0.039278872 0.23038048 0.037919085 -0.2474255 0.17288873
-0.009441098 0.29402375 -0.03879192 0.12417709 0.07551084 0.00660729 -0.39325386 0.052069876
-0.3093837 0.3535693 -0.19889948 -0.37893406 -0.010129411 -0.12495539 -0.273891 0.14134134
-0.004759743 0.34067887 -0.22530943 0.33430135 0.07770229 0.098533586 0.122830294 -0.08539754
-0.11822333 -0.078014396 -0.19133656 -0.016221989 0.019267073 -0.20365173 -0.17341393 -0.0654978
-0.10726121 -0.08277057 -0.10182852 0.012448877 -0.02250375 -0.0427381 -0.22923742 0.013205885
0.07699692 -0.062305316 0.08764621 -0.11113528 0.17862567 0.1460584 0.11625773 0.0075861583
-0.17640816 0.0046891025 -0.06940427 -0.10017354 0.007959187 -0.19107814 -0.071294814 0.11566387
0.23146746 0.078074165 0.31424317 -0.1025179 -0.07925291 0.09043398 0.26489684 -0.1187647
0.0119036585 -0.025958618 -0.06757675 0.040593743 -0.1788038 -0.11685854 -0.18325256 0.031526342
0.07565862 -0.122737676 -0.049990203 0.09058325 -0.100014254 0.031733107 0.22735319 0.14841796
-0.09637203 -0.016276937 0.10234644 0.12576084 -0.05023997 -0.11711798 0.21133506 -0.0680356
-0.1549124 -0.16169935 -0.30134177 0.06984181 -0.17015663 -0.01690878 0.31632698 -0.06684818
-0.10415008 -0.045269843 0.08324048 -0.3497289 0.21892144 -0.09408766 0.2619132 -0.15626085
0.094454974 0.086656354 0.20715018 -0.06522549 -0.10350635 0.037072603 0.056713726 0.008543062
0.17960286 0.059012726 0.119837426 -0.018157193 -0.03978612 -0.13884638 -0.06468062 -0.21333297
-0.13662155 -0.4034589 -0.024417985 -0.019151213 0.10098294 0.025552055 -0.12503375 -0.091718614
-0.0001645024 -0.006253651 -0.3775076 0.16720611 -0.021406664 -0.011345577 0.12708713 -0.15922508
0.3421115 -0.006086967 0.23423584 0.14684615 0.22136153 0.29114962 0.129769 0.27693853
0.09848069 0.026772413 0.040746365 0.2989272 0.17959282 0.16817784 0.0136921285 0.074015066
0.07099728 -0.029618017 0.072161384 0.098804645 0.021233529 -0.03352387 0.07716364 0.06444552
-0.069736734 0.058111165 -0.11276411 -0.08268491 0.0046995757 -0.053973112 0.17786922 0.06473082
0.14058915 0.08273383 0.0029834397 0.15000238 -0.009263477 -0.2569184 -0.22807097 -0.11609108
00000000: 6217 643e eb1d 73be 8139 3abe b327 f73c
00000010: 8352 533d eadb 04bd 2f52 c13d 51ae 3e3e
00000020: b738 103e 3f87 08be 3722 5ebd 6d4b 853e
00000030: 20bb 71be b2e4 563d 8de0 e4bd 300a 9f3c
00000040: d03c 9f3e 7714 bdbb 71b0 b0bd 20ec 233e
00000050: 7027 02be 74e8 bebd 50ad 6e3d 305a 8dbe
00000060: 248c a83e 9a8b fbbd 8911 863d 8289 80bd
00000070: 190c 20bd f314 61be 562c 8dbe 05b2 023e
00000080: 177a 973e a76e d8bd ed93 5f3d aa05 e9bd
00000090: 2c58 4f3b e6b9 7c3e ace8 1f3e 99d5 66be
000000a0: a0df 423e 9405 263d ceae 1e3d 7348 e43e
000000b0: dee9 093e 9256 cebd f898 80be 0e07 0e3a
000000c0: 8e36 423d 23f1 a8bd 01cd 023c 5c06 f2bd
000000d0: ac6c c73d 4d4c 43be 77f5 92bd 4e15 92bc
000000e0: 644b 83bd 5382 223e 3edf da3b c0e7 523e
000000f0: 4c2a 6c3d ac59 1abe 99f3 843d 7c29 4a3c
00000100: 00d0 5cbd 5e90 40be 21b0 a83d a1c7 88be
00000110: 7810 153e 0880 113e 671e f3bd 2e6d e7bd
00000120: fc25 3cbe 532f 443e 0d71 9a3e e2e2 20bd
00000130: dce8 6b3e 0b51 1b3d 1c5d 7dbe be09 313e
00000140: d6ae 1abc 488a 963e 47e4 1ebd 8f50 fe3d
00000150: 6da5 9a3d f781 d83b 9258 c9be 3947 553d
00000160: 8a67 9ebe 0907 b53e 4eac 4bbe a503 c2be
00000170: d4f5 25bc 9de8 ffbd 713b 8cbe c9bb 103e
00000180: 9ef7 9bbb 766d ae3e 84b7 66be 8c29 ab3e
00000190: 6122 9f3d facb c93d 738e fb3d e8e4 aebd
000001a0: 131f f2bd 03c6 9fbd bbed 43be fae3 84bc
000001b0: fbd5 9d3c 148a 50be 6c93 31be b623 86bd
000001c0: c4ab dbbd 9e83 a9bd 798b d0bd 60f6 4b3c
000001d0: c959 b8bc 250e 2fbd 37bd 6abe 7f5d 583c
000001e0: 90b0 9d3d dc33 7fbd db7f b33d e59a e3bd
000001f0: a6e9 363e 5590 153e 8818 ee3d 4f95 f83b
00000200: 57a4 34be 0ba7 993b d323 8ebd c927 cdbd
00000210: 4067 023c fda9 43be 0403 92bd 2ee1 ec3d
00000220: ce05 6d3e 59e5 9f3d 7be4 a03e e8f4 d1bd
00000230: 5a4f a2bd 7335 b93d 8fa0 873e e83a f3bd
00000240: 9007 433c 2ba7 d4bc ae65 8abd a045 263d
00000250: 5818 37be 8853 efbd 8fa6 3bbe c421 013d
00000260: e8f2 9a3d e45d fbbd 87c2 4cbd b683 b93d
00000270: 46d4 ccbd 93fa 013d 46cf 683e e1fa 173e
00000280: b35e c5bd 3657 85bc 039b d13d 73c7 003e
00000290: 6dc8 4dbd 8ddb efbd 3868 583e 4056 8bbd
000002a0: 5ba1 1ebe 8494 25be 7849 9abe 3909 8f3d
000002b0: 8a3d 2ebe 4884 8abc 9cf5 a13e b3e7 88bd
000002c0: a34c d5bd df6c 39bd fc79 aa3d ab0f b3be
000002d0: f12c 603e 08b1 c0bd 7d19 863e d802 20be
000002e0: 9c71 c13d e378 b13d 2d1f 543e f194 85bd
000002f0: 23fb d3bd 71d9 173d a74c 683d 33f8 0b3c
00000300: d0e9 373e 54b7 713d 536d f53d 65be 94bc
00000310: c5f6 22bd bf2d 0ebe 4677 84bd f573 5abe
00000320: 85e6 0bbe 2a92 cebe 3a08 c8bc 01e3 9cbc
00000330: 25d0 ce3d 8b52 d13c d908 00be f8d6 bbbd
00000340: 477e 2cb9 6deb ccbb ad48 c1be 1438 2b3e
00000350: 075d afbc cde2 39bc 2123 023e e60b 23be
00000360: 3d29 af3e 2e75 c7bb 85db 6f3e d65e 163e
00000370: 99ac 623e 9011 953e 2ae2 043e e3ca 8d3e
00000380: 3eb0 c93d d251 db3c a9e5 263d fc0c 993e
00000390: 2ee7 373e d036 2c3e f354 603c 3695 973d
000003a0: 0667 913d 7ca1 f2bc 59c9 933d 175a ca3d
000003b0: f0f1 ad3c 5350 09bd f807 9e3d 03fc 833d
000003c0: 22d2 8ebd f905 6e3d dff0 e6bd b556 a9bd
000003d0: e6fe 993b e912 5dbd 5923 363e 9891 843d
000003e0: 9af6 0f3e 5b70 a93d d085 433b 399a 193e
000003f0: d7c5 17bc cf8a 83be 708b 69be 29c1 edbd

shared_layer.res_blocks.1.fc2.bias f4 [17]
-0.01717951 0.19768198 -0.0017661981 -0.00035343092 -0.026368925 0.35580075 -0.18970561 0.050439093
-0.05663505 -0.26853642 0.25269017 -0.23834558 0.058595747 -0.23413505 -0.26633134 0.31861416
-0.29877344
00000000: 0bbc 8cbc 256d 4a3e c67f e7ba b24c b9b9
00000010: a503 d8bc 842b b63e 3042 42be 3999 4e3d
00000020: 27fa 67bd 9b7d 89be 9b60 813e dd10 74be
00000030: 1802 703d 19c1 6fbe 955c 88be 6521 a33e
00000040: d5f8 98be

shared_layer.res_blocks.1.norm2.weight f4 [17]
0.68006307 0.7341531 0.9502238 0.7661098 1.0677636 0.9538187 1.0457764 0.880614
1.0276567 1.0275713 0.8836595 0.8337908 0.66445667 0.94496995 0.9265928 0.90268314
1.1760585
00000000: 9d18 2e3f 75f1 3b3f de41 733f c61f 443f
00000010: 7aac 883f 762d 743f 00dc 853f eb6f 613f
00000020: 418a 833f 7587 833f 8237 623f 5073 553f
00000030: d519 2a3f 8de9 713f 3035 6d3f 3e16 673f
00000040: 1689 963f

shared_layer.res_blocks.1.norm2.bias f4 [17]
0.00477283 0.0551716 0.006730541 0.12054091 -0.09593396 -0.02505941 -0.05240828 0.006182007
-0.0477426 -0.08591912 -0.0013377242 -0.0812197 0.04739944 0.018904475 0.029317688 -0.044803053
-0.15758704
00000000: 6665 9c3b 9efb 613d df8b dc3b 27de f63d
00000010: 0679 c4bd 6449 cdbc 11aa 56bd 6f92 ca3b
00000020: bf8d 43bd 5df6 afbd 9356 afba 8456 a6bd
00000030: ea25 423d 8fdd 9a3c a62b f03c 6883 37bd
00000040: 7f5e 21be

hazard_layer.weight f4 [10, 33]
0.05656541 -0.19963878 0.20498341 0.17553519 0.23813874 -0.1703805 0.07514554 0.1253754
0.3448472 0.22756116 -0.19795048 -0.25552797 -0.0889286 0.34481782 0.053889584 -0.20907727
-0.16782536 0.07897246 -0.34507057 -0.26533177 -0.27205038 -0.10437308 -0.029225051 -0.11613116
-0.2678369 -0.14749488 -0.26984218 0.17338209 -0.51824015 -0.26938787 -0.1830426 -0.32386363
0.1451982 -0.079748645 -0.023391359 -0.05923652 0.06138288 0.1949274 0.013653828 -0.0025468783
0.07469124 0.13591704 0.09178364 -0.12717116 -0.12863766 0.05770454 -0.055870574 0.03205107
-0.12831388 -0.12314275 0.12633021 -0.308468 0.03461219 -0.045798056 -0.14022326 0.3013252
-0.36525357 -0.12162539 -0.35124663 0.036817208 0.35898295 -0.39423937 -0.2976229 -0.21359886
-0.19020428 0.0953896 0.047057826 0.007851402 0.05873264 -0.014429962 0.122591764 -0.08531983
0.029141488 0.1533886 0.27659386 0.12576489 -0.1896496 0.049641043 -0.052432187 0.036550943
0.016432311 0.055946648 0.0056847464 0.1872993 -0.31470123 -0.037603486 -0.14597547 -0.16651611
0.16917785 -0.3248271 -0.21144406 -0.16199863 0.080885276 0.22055605 -0.40391156 -0.20258602
-0.03661471 -0.100390494 0.12628825 -0.073925376 0.02739006 0.28630868 -0.0033414115 0.14393166
0.039510082 0.12403852 0.034801923 0.18975432 0.22988735 -0.0053809523 0.06118198 -0.04648057
0.15788156 0.1680099 -0.1678867 -0.012116157 0.07529264 -0.287899 0.013931508 -0.14279367
0.012948413 -0.058397423 -0.34338063 -0.21790934 -0.16053794 0.062216785 0.16576198 -0.28236195
-0.32575673 -0.060684185 -0.043582007 0.1285375 -0.04913604 0.015903112 0.091659635 0.08266121
0.048020907 -0.08007681 0.078131214 0.08489683 0.27082393 -0.011330491 0.012666987 0.02308458
0.026903553 0.11663306 0.15615131 -0.018451862 -0.06177474 0.40305403 -0.310192 0.12755091
-0.048815113 0.058478717 0.19260429 -0.06043061 -0.17292468 -0.17940141 0.11542699 0.23154749
-0.3607397 -0.23826994 -0.024038495 -0.21597296 0.1568009 0.027992694 -0.008718415 0.24303946
0.18156701 0.08276726 -0.12727474 -0.109922476 0.1096052 0.24587132 0.13611701 -0.07208559
-0.18255587 0.0009054847 -0.00049575075 0.17018169 -0.07451221 -0.25849143 0.14949672 -0.37051904
-0.020753415 -0.1323201 -0.011805814 -0.057571337 -0.335833 -0.18555379 -0.2467098 -0.20276898
0.24162497 -0.2518124 -0.17277117 0.032157667 -0.17188984 0.10007786 -0.0075064288 -0.045393914
-0.06364885 0.13275741 0.07261725 -0.051964737 -0.043586705 -0.0047602504 0.22921535 0.1714797
-0.108087264 -0.08056777 -0.104772 0.0044949083 0.14990464 -0.006839795 -0.09421029 0.29568118
-0.4347557 0.030339003 -0.04335282 -0.07256676 0.35503948 -0.16092256 -0.20683001 -0.067505546
0.013968231 0.291992 -0.222719 -0.18189704 -0.031177813 -0.07010348 0.09569679 0.029882211
-0.03595045 0.18684615 0.058719873 0.08063762 -0.007743211 0.14098322 -0.00020954438 0.17584488
0.19007199 -0.05376048 -0.18516693 -0.14419276 0.14647913 0.11845552 -0.018377593 -0.049476676
0.13787854 -0.26085183 -0.018873446 -0.019969348 -2.7715567e-05 0.2448222 -0.0904328 -0.26575667
00000000: 22b1 673d 1c6e 4cbe 2ce7 513e 7fbf 333e
00000010: a4da 733e 3a78 2ebe e8e5 993d 6962 003e
00000020: d08f b03e cb05 693e 88b3 4abe 90d4 82be
00000030: 3320 b6bd f68b b03e 53bb 5c3d 5a18 56be
00000040: 69da 2bbe 50bc a13d 17ad b0be 91d9 87be
00000050: 304a 8bbe 8ec1 d5bd 6069 efbc 2cd6 edbd
00000060: eb21 89be e608 17be c128 8abe 138b 313e
00000070: 63ab 04bf 35ed 89be 856f 3bbe 74d1 a5be
00000080: d6ae 143e 4253 a3bd 3c9f bfbc fea1 72bd
00000090: 9d6c 7b3d 0c9b 473e 4eb4 5f3c 87e9 26bb
000000a0: b9f7 983d d62d 0b3e 10f9 bb3d 2839 02be
000000b0: 97b9 03be 995b 6c3d 8bd8 64bd fc47 033d
000000c0: b764 03be 4432 fcbd b55c 013e 85ef 9dbe
000000d0: 83c5 0d3d be96 3bbd b096 0fbe 4c47 9a3e
000000e0: 8402 bbbe bc16 f9bd 99d6 b3be a4cd 163d
000000f0: 9dcc b73e bed9 c9be 0762 98be a9b9 5abe
00000100: e9c4 42be 9f5b c33d b5bf 403d 2ba3 003c
00000110: a391 703d a66b 6cbc 6411 fb3d 2abc aebd
00000120: 21ba ee3c e711 1d3e b69d 8d3e 83c8 003e
00000130: 8133 42be 6854 4b3d 22c3 56bd 71b6 153d
00000140: 0e9d 863c 5028 653d 1c47 ba3b 63cb 3f3e
00000150: 8520 a1be 1d06 1abd 987a 15be 3383 2abe
00000160: f53c 2d3e bd4f a6be cb84 58be f8e2 25be
00000170: 2ea7 a53d 72d9 613e 7fcd cebe b672 4fbe
00000180: 4ef9 15bd 8899 cdbd b551 013e 3066 97bd
00000190: 1e61 e03c 0d97 923e 95fb 5abb d262 133e
000001a0: 53d5 213d e807 fe3d 768c 0e3d f54e 423e
000001b0: 9767 6b3e b352 b0bb f599 7a3d 6962 3ebd
000001c0: b4ab 213e ca0a 2c3e 7eea 2bbe d982 46bc
000001d0: 0733 9a3d 7f67 93be fb40 643c 8138 12be
000001e0: 9525 543c 2332 6fbd 96cf afbe a023 5fbe
000001f0: 0f64 24be 07d7 7e3d 82bd 293e bf91 90be
00000200: 96c9 a6be fb8f 78bd 0c83 32bd 569f 033e
00000210: df42 49bd 3e47 823c 0cb8 bb3d 484a a93d
00000220: 92b1 443d 50ff a3bd 4203 a03d 64de ad3d
00000230: 6fa9 8a3e 86a3 39bc 3289 4f3c e01b bd3c
00000240: d764 dc3c 50dd ee3d 21e6 1f3e 5c28 97bc
00000250: 8307 7dbd 195d ce3e 7cd1 9ebe b59c 023e
00000260: 5bf2 47bd 6187 6f3d 0f3a 453e 1686 77bd
00000270: 2b13 31be 01b5 37be fc64 ec3d c91a 6d3e
00000280: e0b2 b8be 09fd 73be 61ec c4bc 0428 5dbe
00000290: 6a90 203e ef50 e53c afd7 0ebc 56df 783e
000002a0: b4ec 393e e281 a93d 4f54 02be 091f e1bd
000002b0: b178 e03d b1c5 7b3e 4262 0b3e 9ca1 93bd
000002c0: edef 3abe 0d5e 6d3a 45f5 01ba 1c44 2e3e
000002d0: dc99 98bd fd58 84be ab15 193e acb4 bdbe
000002e0: 1103 aabc ec7e 07be 2c6d 41bc eccf 6bbd
000002f0: 4ef2 abbe d001 3ebe 7ea1 7cbe aca2 4fbe
00000300: 896c 773e 8eed 80be edea 30be c2b7 033d
00000310: e403 30be 9ff5 cc3d 7df8 f5bb f8ee 39bd
00000320: 545a 82bd 8ff1 073e 5ab8 943d fad8 54bd
00000330: f987 32bd e0fb 9bbb 6eb7 6a3e 6098 2f3e
00000340: db5c ddbd b700 a5bd b492 d6bd 064a 933b
00000350: 9a80 193e 5c20 e0bb 53f1 c0bd 8663 973e
00000360: 4d98 debe 8089 f83c ba92 31bd e29d 94bd
00000370: bcc7 b53e e2c8 24be 3fcb 53be 5940 8abd
00000380: 02db 643c fa7f 953e 7310 64be 3843 3abe
00000390: 9d68 ffbc 6a92 8fbd aefc c33d 8acb f43c
000003a0: c740 13bd 9954 3f3e 4084 703d 5625 a53d
000003b0: c3ba fdbb e85d 103e 24b9 5bb9 ae10 343e
000003c0: 3ba2 423e f333 5cbd 669c 3dbe 44a7 13be
000003d0: a0fe 153e cf98 f23d 9b8c 96bc 0ea8 4abd
000003e0: 0830 0d3e 5f8e 85be 7c9c 9abc c296 a3bc
000003f0: ba7e e8b7 acb2 7a3e d534 b9bd 4211 88be

hazard_layer.bias f4 [10]
-0.27019158 -0.3058841 -0.09010565 -0.32106838 -0.232522 -0.028715938 -0.3165882 -0.03741753
-0.16045918 -0.08549045
00000000: 8d56 8abe d79c 9cbe 5089 b8bd 1363 a4be
00000010: 3f1a 6ebe b03d ebbc d917 a2be 2043 19bd
00000020: 694f 24be 9e15 afbd

exp_avg f4 [8]
-0.043407243 0.010473981 0.016653841 -0.004964529 0.009236302 0.0068808324 0.020705888 -0.0052659707
00000000: cbcb 31bd 0f9b 2b3c a36d 883c 7dad a2bb
00000010: dc53 173c 9b78 e13b 659f a93c 2a8e acbb

exp_avg_sq f4 [8]
0.004567163 0.0004211324 0.00026792177 0.0009008487 0.00046929598 0.0011792876 0.0022302938 0.00038177925
00000000: 24a8 953b 6fcb dc39 da77 8c39 ef26 6c3a
00000010: d70b f639 5392 9a3a 1f2a 123b 8b29 c839

exp_avg f4 [8]
-0.06504178 0.053787664 0.03372687 -0.011234421 0.0055223107 -0.02462922 0.015779221 -0.010229902
00000000: a034 85bd 7450 5c3d 3025 0a3d 9410 38bc
00000010: 80f4 b43b 38c3 c9bc 6d43 813c 529b 27bc

exp_avg_sq f4 [8]
0.0028411527 0.0046039606 0.0003668026 0.00061144395 0.0003644092 0.0031452035 0.0033225077 0.00041620032
00000000: a232 3a3b d2dc 963b 694f c039 4f49 203a
00000010: 2d0e bf39 c21f 4e3b 6ebe 593b 7635 da39

exp_avg f4 [4, 8]
-0.023203762 0.01846619 0.01628808 0.029389858 0.028703343 0.01578702 -0.010526378 -0.014713382
0.008638455 -0.015380624 -0.0095797 -0.007735288 -0.026284713 0.0012767757 -0.039233275 -0.0033931467
-0.107673906 -0.025284007 -0.026498133 -0.02730391 -0.058119275 0.008470233 -0.017892787 -0.0113348
0.06463833 0.037289515 -0.0393295 0.042417254 0.03946308 0.006700684 0.044051882 -0.018691806
00000000: d115 bebc 6846 973c 946e 853c 00c3 f03c
00000010: 4623 eb3c c853 813c d476 2cbc 6610 71bc
00000020: 4e88 0d3c 03ff 7bbc 2df4 1cbc 4c78 fdbb
00000030: 0a53 d7bc 7c59 a73a 12b3 20bd 8e5f 5ebb
00000040: 2384 dcbd 6820 cfbc 9d12 d9bc 73ac dfbc
00000050: 7a0e 6ebd bbc6 0a3c e593 92bc 99b5 39bc
00000060: 1a61 843d e4bc 183d f817 21bd b7bd 2d3d
00000070: 0aa4 213d 6991 db3b bf6f 343d 8f1f 99bc

exp_avg_sq f4 [4, 8]
0.008741991 0.0009176454 0.00283658 0.0046733124 0.0056690187 0.0062894016 0.0062313396 0.003691956
0.005722597 0.0003130242 0.0024203015 0.0023244834 0.004171256 0.0053338655 0.0046696947 0.0005931374
0.01386626 0.0019153629 0.0016010794 0.005383758 0.003474031 0.008552979 0.0033582563 0.0026255657
0.016867891 0.0017925965 0.008085028 0.005470211 0.011789852 0.009431156 0.014718461 0.002848261
00000000: 913a 0f3c 248e 703a eae5 393b 9622 993b
00000010: 2dc3 b93b 5317 ce3b 4430 cc3b bef4 713b
00000020: 9f84 bb3b 661d a439 ec9d 1e3b 5c56 183b
00000030: 08af 883b b5c7 ae3b 3d04 993b c77c 1b3a
00000040: 4f2f 633c ea0c fb3a 4fdb d13a 3c6a b03b
00000050: 92ac 633b cb21 0c3c 3116 5c3b af11 2c3b
00000060: 882e 8a3c 8ff5 ea3a 1177 043c 753f b33b
00000070: 392a 413c 2385 1a3c b325 713c e4a9 3a3b

exp_avg f4 [4]
0.02100856 -0.030910587 -0.10991577 0.04885003
00000000: 251a ac3c 3338 fdbc 851b e1bd f816 483d

exp_avg_sq f4 [4]
0.0137954345 0.007518937 0.013287948 0.021982742
00000000: 3f06 623c 6a61 f63b b2b5 593c 2715 b43c

exp_avg f4 [12]
0.014637146 0.0025146562 -0.0026726427 -0.0030449335 -0.0034555525 0.0043423227 -0.00086991274 0.0037498919
0.0025460876 0.000523386 -0.0058622626 -0.0009382796
00000000: a4d0 6f3c eecc 243b 8127 2fbb 828d 47bb
00000010: 8d76 62bb 0b4a 8e3b db0a 64ba bfc0 753b
00000020: 43dc 263b d733 093a 3918 c0bb e1f6 75ba

exp_avg_sq f4 [12]
0.0017370112 0.0004110358 4.299706e-05 0.00013964229 0.00016882774 0.00087877514 0.00056139904 0.0005788828
0.00011259888 0.00022015827 0.00014236844 0.00024536427
00000000: 6dac e33a 4b80 d739 be57 3438 f16c 1239
00000010: 5a07 3139 9a5d 663a da2a 133a 2bc0 173a
00000020: 1023 ec38 49da 6639 bd48 1539 3ca4 8039
