demo_results/checkpoint.pth (torch, 62217 bytes, 90 tensors)

dense_block.block.0.norm.weight f4 [8]
0	0x3f509556	0.8147787
1	0x3faeedc5	1.3666312
2	0x3f35ab5b	0.7096459
3	0x3f4f061c	0.808687
4	0x3f412737	0.7545046
5	0x3f5f75a2	0.8728887
6	0x3f592bfd	0.84832746
7	0x3f6e0fc5	0.9299281

dense_block.block.0.norm.bias f4 [8]
0	0x3d4f68b5	0.050636966
1	0x3f039af5	0.5140832
2	0xbe35762e	-0.17720863
3	0xbe32ee62	-0.17473748
4	0xbe15a508	-0.14613736
5	0x3ebcb5d9	0.3685749
6	0x3e93d8c1	0.28876308
7	0xbd6d3323	-0.057910096

dense_block.block.0.fc.weight f4 [4, 8]
0	0x3c6ea7e8	0.014566399
1	0x3f2f86d0	0.6856508
2	0x3cdcf9f4	0.026974656
3	0x3e6fca8a	0.23417106
4	0x3d800374	0.06250659
5	0xbe788812	-0.24270657
6	0x3dc7368b	0.097272
7	0x3e292dbe	0.16521356
8	0x3e566981	0.20938684
9	0xbe45fa7a	-0.1933383
10	0xbc52f5e7	-0.0128760105
11	0x3e2baa1c	0.1676411
12	0x3d756c11	0.059917513
13	0x3ddff4ad	0.1093534
14	0xbce81324	-0.02832944
15	0xbe870a4b	-0.2637504
16	0x3e953986	0.2914545
17	0x3d072282	0.032991894
18	0xbe873188	-0.26404977
19	0x3e625267	0.22101746
20	0xbaaa8837	-0.0013010566
21	0x3cc80cb4	0.02442012
22	0xbe87e3c5	-0.26540962
23	0x3eafe395	0.3435332
24	0xbe4229fa	-0.18961325
25	0x3f288916	0.65834177
26	0x3d954f91	0.07290567
27	0xbd163f43	-0.036681425
28	0x3e011e98	0.12609327
29	0xbea00285	-0.31251922
30	0x3eafffb7	0.34374782
31	0x3cb70c6d	0.022344792

dense_block.block.0.fc.bias f4 [4]
0	0x3e334483	0.17506604
1	0xbdd9ec66	-0.106407925
2	0xbd6bf164	-0.057603255
3	0x3ed36b94	0.41293013

dense_block.block.1.norm.weight f4 [12]
0	0x3f7334fb	0.95002717
1	0x3fbf437d	1.4942471
2	0x3f40ec6c	0.7536075
3	0x3f4eaac6	0.8072933
4	0x3f72330b	0.94609135
5	0x3f80b4c6	1.0055168
6	0x3f851111	1.0395833
7	0x3f61617d	0.8803938
8	0x3f4894ec	0.78352237
9	0x3f56908c	0.8381431
10	0x3f884735	1.0646731
11	0x3f6bba6d	0.9208134

dense_block.block.1.norm.bias f4 [12]
0	0xbdafc017	-0.0858156
1	0x3e3674d4	0.17818004
2	0xbda83902	-0.082139984
3	0xbe65f76a	-0.22457662
4	0xbd022d25	-0.031781334
5	0x3e8e3505	0.27774826
6	0x3e788903	0.24271016
7	0x3d7e9fa9	0.062163983
8	0x3ca88c3a	0.020574678
9	0xbe81be1f	-0.25340363
10	0xbe0ed709	-0.13949217
11	0x3e61d48c	0.22053736

dense_block.block.1.fc.weight f4 [4, 12]
0	0xbdae416f	-0.08508574
1	0x3f40479b	0.7510926
2	0x3c5fa51b	0.013650204
3	0x3d496146	0.049165033
4	0xbd2a1f00	-0.04153347
5	0xbe6ae3aa	-0.2293841
6	0x3e851df2	0.2599941
7	0x3dcac11d	0.09900115
8	0x3d59b163	0.053147685
9	0x3e0f1c8a	0.1397573
10	0x3e84894c	0.25886
11	0xbd016b0d	-0.031596232
12	0x3d5f815d	0.05456673
13	0x3dc9ce9e	0.09853862
14	0xbeea79f5	-0.4579617
15	0x3e2868ee	0.16446277
16	0xbebaf238	-0.36512923
17	0x3d7ac1e3	0.06122006
18	0xbd86486c	-0.06556782
19	0x3e41e4ec	0.18934983
20	0x3e3680af	0.17822526
21	0x3c71f188	0.014767058
22	0x3ed9935a	0.42495233
23	0xbe4ee787	-0.20205508
24	0xbe6d833d	-0.23194595
25	0x3e8eee5e	0.27916235
26	0xbc42d2c6	-0.011891073
27	0xbae1ecd9	-0.0017236724
28	0x3d45f874	0.048332646
29	0xbe917ba6	-0.2841465
30	0x3e9f0036	0.31054848
31	0xbb4431d3	-0.0029936924
32	0x3d137522	0.03600038
33	0x3ca22106	0.019791137
34	0x3e8fcc40	0.28085518
35	0xbe9bc05c	-0.30420196
36	0x3e94db07	0.29073355
37	0xbec5f110	-0.3866048
38	0xbe24cac8	-0.1609298
39	0xbe761df0	-0.24034858
40	0xbe7afb4f	-0.24509929
41	0x3dfe2232	0.12408866
42	0x3d33f445	0.043934125
43	0x3f020664	0.50791
44	0xbd399a19	-0.045312975
45	0xbe68306e	-0.22674724
46	0xbddcf77b	-0.10789391
47	0x3d93b499	0.07212181

dense_block.block.1.fc.bias f4 [4]
0	0x3e852553	0.2600504
1	0xbdd934a1	-0.10605741
2	0x3e386ef2	0.18011072
3	0xbe83f563	-0.25773153

shared_layer.input_projection.weight f4 [17, 16]
0	0xbe3cb02f	-0.18426584
1	0x3e8785a8	0.2646916
2	0xbd3e3ca5	-0.046444554
3	0x3ab7fdce	0.0014037432
4	0x3de0c1ad	0.10974441
5	0x3e14834a	0.14503208
6	0xbe0ae150	-0.13562512
7	0xbca6151f	-0.020273743
8	0x3eaea535	0.34110418
9	0xbd8088a4	-0.06276062
10	0xbe0aa5d9	-0.13539828
11	0x3e3d6e29	0.18499054
12	0xbe6de2c2	-0.23231032
13	0x3b0a18ab	0.0021071832
14	0xbdb9a62c	-0.09064898
15	0x3e4c757f	0.19966696
16	0x3bc02840	0.005864173
17	0xbe2ede6e	-0.17077038
18	0xbe593086	-0.21209916
19	0xbe0cf83a	-0.13766566
20	0xbe600de6	-0.21880302
21	0xbe230144	-0.15918452
22	0x3e7fe65e	0.24990222
23	0x3d416870	0.04721874
24	0x3d9dc71c	0.07703993
25	0xbe6ec466	-0.23317108
26	0xbe282254	-0.16419345
27	0xbdaa6c14	-0.083213955
28	0x3d201fc0	0.03909278
29	0xbe614286	-0.21998033
30	0xbddc9b64	-0.10771826
31	0xbe194258	-0.14966714
32	0xbd4f52d3	-0.050616097
33	0xbe13c9f7	-0.14432512
34	0xbd8c3ad4	-0.06847158
35	0xbe620374	-0.2207163
36	0xbe6440ba	-0.22290316
37	0xbe49e3b3	-0.19715767
38	0xbe0c2a4b	-0.13688008
39	0xbe7e92fb	-0.24860756
40	0x3e221b48	0.1583072
41	0xbdceb1ce	-0.10092507
42	0x3e27b8b4	0.16379052
43	0x3d9f87b0	0.07789552
44	0xbe58c7b0	-0.21169925
45	0x3df93dcf	0.12169992
46	0xbd8cdfc8	-0.068786204
47	0xbdc44350	-0.09583151
48	0xbe8a99fd	-0.2707061
49	0xbea349d6	-0.3189227
50	0x3b167d8c	0.0022963015
51	0xbdf0fec0	-0.1176734
52	0x3cdb1175	0.026741723
53	0xbe8f3084	-0.27966702
54	0x3dffaaf2	0.12483777
55	0xbe83d3ab	-0.25747427
56	0xbdae7fae	-0.08520447
57	0xbd2a0e0e	-0.04151731
58	0x3d98cc5b	0.07460853
59	0x3e001352	0.1250737
60	0x3e14dad5	0.14536603
61	0xbe24a326	-0.16077861
62	0xbc1ab532	-0.009442614
63	0xbddc3978	-0.10753149
64	0x3e14cadd	0.14530511
65	0xbe9de2c0	-0.3083706
66	0x3ecd1797	0.4005706
67	0xbe50e92c	-0.20401448
68	0x3e4c0fd0	0.19927907
69	0x3e982672	0.2971683
70	0x3b9aa357	0.0047191787
71	0xbe7bc477	-0.24586664
72	0x3d4a6968	0.04941693
73	0x3de3e504	0.11127666
74	0x3e9d733e	0.30751985
75	0xbe30f2ca	-0.17280117
76	0x3d001f6c	0.031279966
77	0xbdb92e71	-0.09042061
78	0xbdbef6a9	-0.093243904
79	0x3e492c83	0.19645886
80	0xbd383128	-0.044968754
81	0x3d8bd879	0.06828398
82	0xbe7a23aa	-0.24427667
83	0x3d91c534	0.07117692
84	0x3dc2db60	0.09514499
85	0xbe4bc16a	-0.19898
86	0xbca65e59	-0.02030866
87	0xbd649b50	-0.05581218
88	0xbe558aae	-0.20853683
89	0x3e1d5338	0.15363777
90	0xbd83e99c	-0.06441042
91	0xbe3a9891	-0.18222262
92	0x3e1f0423	0.15528922
93	0x3e2a41f5	0.16626723
94	0xbe0ffcc8	-0.14061272
95	0x3b6ce2bb	0.0036145884
96	0x3e9225cf	0.2854447
97	0x3d9e8f74	0.07742205
98	0x3e46fe34	0.19432908
99	0xbd22a9e4	-0.0397128
100	0x3d403e09	0.04693416
101	0x3e46fbfb	0.1943206
102	0xbd3fe0af	-0.046845134
103	0xbc3bfe23	-0.011474165
104	0x3e157a2d	0.14597388
105	0x3e5933dc	0.21211189
106	0x3e21cba5	0.1580034
107	0xbd5ca5e1	-0.053869132
108	0x3ddbacbf	0.10726308
109	0x3ceb66cc	0.02873554
110	0x3d04bdbb	0.032407504
111	0x3ee37726	0.4442684
112	0xbe88b5bd	-0.26701155
113	0xbe10b55f	-0.14131688
114	0x3dd17af6	0.10228531
115	0x3a4bc17c	0.0007772667
116	0xbd8bddb0	-0.06829393
117	0xbe60a815	-0.21939118
118	0xbe81ffc7	-0.25390455
119	0xbea34b0d	-0.31893197
120	0x3d2cb0c8	0.04216078
121	0xbd20b61a	-0.039236166
122	0x3dc1f4b9	0.09470505
123	0x3e1ecdf9	0.1550826
124	0xbdc77f97	-0.09741133
125	0xbe19f2e4	-0.15034062
126	0xbd219ab0	-0.039454162
127	0x3eb6f2b6	0.3573205
128	0x3ebc4c47	0.36776945
129	0xbe875d49	-0.26438358
130	0x3ee22dd9	0.44175604
131	0xbde689a5	-0.11256722
132	0x3ce5b81c	0.028041892
133	0x3f07359a	0.52816164
134	0xbe44d5a3	-0.19222121
135	0xbd9ff8be	-0.07811116
136	0x3d3f7026	0.046737812
137	0x3df40230	0.1191448
138	0x3ea2e6dc	0.31816757
139	0x3d62ea9e	0.05539953
140	0x3d8d9af7	0.06914323
141	0xbe87095d	-0.2637433
142	0x3c0f17ed	0.008733732
143	0x3dbc268d	0.091870405
144	0x3d0ebe94	0.03484972
145	0x3ddc9446	0.107704684
146	0x3d1bb8d6	0.03801807
147	0xbcf74ddc	-0.030188493
148	0xbdbb1174	-0.09134188
149	0xbe923c26	-0.28561515
150	0xbe9910dd	-0.29895678
151	0xbea3ca77	-0.31990406
152	0x3c468320	0.012116224
153	0xbe3204e0	-0.17384672
154	0x3c1f7959	0.009733521
155	0xbe50d359	-0.20393123
156	0xbdef0882	-0.116715446
157	0xbe1cf34a	-0.15327182
158	0xbdec6b1a	-0.115438655
159	0x3da9d600	0.082927704
160	0xbe490f24	-0.19634682
161	0x3f018793	0.50597495
162	0xbe425821	-0.18978931
163	0xbd286be9	-0.041118536
164	0xbcecdde6	-0.028914403
165	0xbe80d9b8	-0.25166106
166	0x3e1958f1	0.14975335
167	0xbcfcb047	-0.030845774
168	0x3e67e3fb	0.22645561
169	0xbd1330c3	-0.035935175
170	0xbc530237	-0.012878946
171	0x3e50e277	0.2039889
172	0x3e1cefd7	0.15325867
173	0xbdc75535	-0.09733049
174	0x3e67d7cf	0.22640918
175	0xbc3dd88c	-0.011587273
176	0x3e38cb87	0.1804639
177	0x3eb71fe3	0.35766515
178	0x3d8d9f06	0.06915097
179	0x3dca4662	0.09876706
180	0x3d23e871	0.040016595
181	0xbe46cf3f	-0.19414996
182	0x3e9dc9fe	0.3081817
183	0xbe0b03d1	-0.13575675
184	0x3e2f3638	0.17110527
185	0x3e91e133	0.28492126
186	0x3ed3ee6f	0.41392848
187	0x3daba856	0.08381717
188	0x3d719f99	0.058990095
189	0x3dd167c8	0.10224873
190	0x3e8527e9	0.26007012
191	0xbda7684e	-0.081741914
192	0xbdc09f2b	-0.09405359
193	0xbdc6aaf2	-0.09700574
194	0xbe188484	-0.148943
195	0xbe43bd26	-0.19115123
196	0xbdd65cff	-0.10466956
197	0xbdd678a5	-0.1047223
198	0xbe6500d6	-0.223636
199	0x3e063f09	0.13109984
200	0x3ea1e92f	0.31623217
201	0xbe812ea0	-0.25230885
202	0x3b92443d	0.004463701
203	0xbe97d191	-0.29652074
204	0xbe7911b5	-0.24323161
205	0xbd45d767	-0.048301127
206	0x3e55f589	0.20894445
207	0xbdd83bbf	-0.10558271
208	0xbe5d7fd7	-0.21630798
209	0xbd99cb32	-0.075094596
210	0xbe0e2c80	-0.13884163
211	0xbe0bbe89	-0.13646902
212	0xbd42ca22	-0.04755605
213	0xbdde7282	-0.108616844
214	0xbe111123	-0.14166693
215	0xbe337f49	-0.17529024
216	0xbe84a0cd	-0.2590393
217	0x3e1dbc22	0.15403798
218	0xbdcce554	-0.10004678
219	0x3c2e9659	0.010655963
220	0xbe11bf09	-0.1423303
221	0x3ca66c50	0.02031532
222	0x3e35bef8	0.1774863
223	0x3debe3d8	0.11518067
224	0xbe9110a6	-0.28333014
225	0xbc444f79	-0.011981838
226	0x3e334fa2	0.17510846
227	0x3ba2dd02	0.004970194
228	0x3d9ea480	0.0774622
229	0x3e35b57a	0.17745009
230	0xbdecc32a	-0.11560662
231	0xbba71813	-0.0050993054
232	0xbe6e6c7d	-0.23283572
233	0xbe03ae76	-0.1285952
234	0x3e64ad95	0.22331841
235	0x3d1a3c45	0.037655134
236	0xbe7c2541	-0.24623586
237	0xbe261cca	-0.1622192
238	0xbe84a516	-0.259072
239	0xbe7ca404	-0.24671942
240	0xbe458a22	-0.19290975
241	0xbd7d3b88	-0.06182435
242	0x3e2cc4c0	0.16871929
243	0x3d2b6640	0.04184556
244	0xbe42b70a	-0.19015136
245	0xbe4d5e8c	-0.20055598
246	0x3dfeb514	0.12436882
247	0xbe3e6c62	-0.18596032
248	0xbcfc2a40	-0.030781865
249	0x3df59c08	0.11992651
250	0xbdecf5b4	-0.11570302
251	0xbcdf5050	-0.027259976
252	0xbcb24460	-0.02176112
253	0xbd7242e8	-0.059145838
254	0xbe01ccdc	-0.12675804
255	0xbe64354e	-0.22285959

shared_layer.input_projection.bias f4 [17]
0	0xbd493ff2	-0.04913325
1	0xbe11c090	-0.14233613
2	0xbe8dab6a	-0.2766984
3	0xbd818337	-0.06323855
4	0x3d596542	0.053075083
5	0x3de6058f	0.11231529
6	0x3db7d3db	0.08975955
7	0xbe885de7	-0.26634142
8	0xbe83e9f4	-0.2576443
9	0xbdae9c68	-0.08525926
10	0x3ecf8677	0.40532276
11	0x3e8db898	0.27679896
12	0xbe252b15	-0.16129716
13	0xbdb44ed3	-0.08804097
14	0xbe85abfe	-0.26107782
15	0xbdf70034	-0.120605856
16	0x3e5d86d6	0.21633467

shared_layer.norm_input.weight f4 [17]
0	0x3f70d58d	0.9407585
1	0x3f7c2c44	0.98505044
2	0x3f8562d8	1.042079
3	0x3f41a639	0.7564426
4	0x3f7b0acc	0.9806335
5	0x3f492810	0.78576756
6	0x3f614941	0.880024
7	0x3f865621	1.0495034
8	0x3fa67e74	1.300734
9	0x3f857037	1.042487
10	0x3f9247b4	1.1428132
11	0x3f386ce4	0.72041154
12	0x3f6ac2ef	0.91703695
13	0x3f805ab1	1.0027677
14	0x3f5735f6	0.8406671
15	0x3f6dec1e	0.9293841
16	0x3f52b46d	0.8230656

shared_layer.norm_input.bias f4 [17]
0	0x3cddbeee	0.027068581
1	0x3cd5aff9	0.026084887
2	0xbd97645a	-0.073921874
3	0x3de28093	0.1105968
4	0xbdbbcb89	-0.091696806
5	0xbc8f76ea	-0.017512757
6	0xbd7f58b7	-0.062340464
7	0xbdaceb67	-0.08443337
8	0xbe5f65d3	-0.21816187
9	0xbdaed234	-0.08536187
10	0x3d376e8b	0.044783156
11	0xbe3f29cb	-0.18668287
12	0x3d922202	0.07135393
13	0xbcac47a0	-0.021030247
14	0xbd19a445	-0.037510175
15	0x3dd09cc9	0.101861544
16	0xbce01ebb	-0.027358403

shared_layer.res_blocks.0.fc1.weight f4 [17, 17]
0	0x3d72f9f5	0.05932041
1	0x3de909ce	0.11378823
2	0xbea33060	-0.31872845
3	0x3e083f36	0.13305363
4	0xbdb61550	-0.08890784
5	0x3db8a17c	0.09015176
6	0x3e8ccbd9	0.27499273
7	0xbd696cb1	-0.05698842
8	0x3e3e0d34	0.18559724
9	0xbea1fbf1	-0.3163753
10	0xbdb4a1ea	-0.08819945
11	0x3e8e9859	0.27850607
12	0xbe132cc5	-0.14372547
13	0xbe036db7	-0.12834822
14	0xbe01ba5f	-0.12668751
15	0x3dd8aad2	0.105794564
16	0x3e23747d	0.15962406
17	0x3e295bb1	0.16538884
18	0xbde7c242	-0.113163486
19	0xbe20ea01	-0.15714265
20	0xbd9a0ffb	-0.07522579
21	0x3d466057	0.04843172
22	0xbd811f83	-0.063048385
23	0xbdccc6db	-0.09998866
24	0x3e5479a5	0.20749529
25	0x3e1eb504	0.1549874
26	0x3d87e1b5	0.06634847
27	0xbd9835af	-0.07432114
28	0xbe9c5ef9	-0.30541208
29	0xbe81c07b	-0.25342163
30	0xbdf01973	-0.11723604
31	0xbd655ae3	-0.05599488
32	0x3dfa3401	0.1221695
33	0xbe083310	-0.13300729
34	0xbcb720d7	-0.022354526
35	0x3e98008a	0.2968791
36	0x3e19bd2c	0.1501357
37	0x3e03413d	0.12817855
38	0xbdabbe63	-0.08385923
39	0xbd5b4905	-0.053536434
40	0x3c5e5d87	0.013572103
41	0xbdbec520	-0.09314942
42	0xbdb626a3	-0.08894088
43	0x3d685f6b	0.056731623
44	0xbe088217	-0.13330875
45	0xbe731af9	-0.23740758
46	0x3e5acf46	0.21368131
47	0x3e87480f	0.26422164
48	0x3dd7c458	0.105354965
49	0x3cd81afa	0.02638005
50	0xbe952e58	-0.2913692
51	0xbd00df0d	-0.031462718
52	0x3e2d76b8	0.16939819
53	0x3e4fb5bd	0.20284171
54	0x3cac9b7f	0.02107024
55	0xbdc8a8b7	-0.09797805
56	0x3d759317	0.05995473
57	0xbe1efdb9	-0.15526475
58	0x3e7bdc0a	0.24595657
59	0x3ab378d4	0.0013692626
60	0x3d857a61	0.065174825
61	0xbde6cf90	-0.11270058
62	0xbd2644f3	-0.0405931
63	0x3c9c9180	0.019112349
64	0x3e822060	0.25415325
65	0x3d94f696	0.07273595
66	0x3e9d68f7	0.30744144
67	0x3e0a895e	0.13528964
68	0xbd73adbb	-0.059491854
69	0xbe02091d	-0.12698789
70	0x3e81e421	0.2536936
71	0x3e17f218	0.14838445
72	0xbdce8b39	-0.10085148
73	0xbc80776b	-0.015681943
74	0xbe82f55f	-0.25577828
75	0xbe13f89a	-0.14450303
76	0x3dce185e	0.100632414
77	0x3ddbd484	0.107338935
78	0xbc204e06	-0.009784227
79	0xbdbac550	-0.091196656
80	0x3e8ce131	0.27515557
81	0x3dd53550	0.10410559
82	0xbe0492d2	-0.12946633
83	0x3d433749	0.047660146
84	0x381495e7	3.5425557e-05
85	0x3e282246	0.16419324
86	0xbd8155e8	-0.063152134
87	0x3e579775	0.2105387
88	0xbdb248ec	-0.08705315
89	0xbe074795	-0.132109
90	0xbe13e8cf	-0.14444278
91	0x3e31e7a7	0.17373525
92	0x3e8af338	0.27138686
93	0x3e7c4064	0.24633938
94	0x3e4b24f0	0.1983831
95	0x3e22d6ed	0.159023
96	0xbdacd0cd	-0.08438263
97	0xbd6acabb	-0.057322245
98	0x3e4dcc86	0.20097551
99	0xbcf07a90	-0.029355317
100	0xbd64d534	-0.05586739
101	0xbe3ee861	-0.18643333
102	0x3e0f046c	0.1396653
103	0x3e652246	0.22376356
104	0xbc9e0027	-0.019287182
105	0xbdd989ee	-0.10622011
106	0xbd80205e	-0.062561736
107	0xbda77de8	-0.081783116
108	0xbe75c649	-0.24001421
109	0x3e706100	0.23474503
110	0x3d5cc70d	0.053900767
111	0x3e9fe6b2	0.31230694
112	0x3e11699a	0.1420044
113	0xbc1bf21a	-0.009518171
114	0x3e309954	0.1724599
115	0x3e1572af	0.1459453
116	0x3d9ed160	0.07754779
117	0x3dad5d3a	0.08465047
118	0xbd86f901	-0.065904625
119	0x3d8009be	0.06251858
120	0x3e5e3702	0.21700671
121	0xbdda4a7c	-0.10658738
122	0xbe13bab5	-0.14426692
123	0xbc6bff4f	-0.014404132
124	0xbe853830	-0.2601943
125	0x3d9b7d26	0.075922295
126	0x3e3d735a	0.18501034
127	0x3e72b28f	0.23700927
128	0x3db67f52	0.08911003
129	0xbddeff9c	-0.10888597
130	0xbd435dff	-0.047697064
131	0xbdae2d0f	-0.08504688
132	0xbd186cfc	-0.03721331
133	0x3ae0d899	0.0017154395
134	0xbe6c8ddd	-0.23100992
135	0x3da3fdcb	0.080073915
136	0xbdfee9d3	-0.12446942
137	0xbdcb8e61	-0.09939266
138	0xbe5425fd	-0.20717616
139	0x3e3ef63d	0.1864862
140	0xbeb1cfdc	-0.34728897
141	0x3e983df7	0.29734775
142	0xbdfcb9c4	-0.123401195
143	0xbd162695	-0.03665789
144	0x3e196a5a	0.14981976
145	0x3972aff5	0.00023144468
146	0x3e11c3c1	0.1423483
147	0x3e134517	0.14381824
148	0xbe255c1e	-0.16148421
149	0x3dfcedf9	0.12350077
150	0x3c262afb	0.010142083
151	0x3dd79a80	0.105275154
152	0x3d5879f2	0.05285067
153	0x3e22d0d1	0.1589997
154	0xbc227d83	-0.00991762
155	0x3da67dde	0.08129476
156	0x3e4ed450	0.20198178
157	0x3d9d56e4	0.07682589
158	0xbd5028c3	-0.050820123
159	0xbe96a80c	-0.29425085
160	0x3dbed7c3	0.09318497
161	0xbd435ac1	-0.04769397
162	0x3e8c64d8	0.27420688
163	0xbe665ace	-0.22495577
164	0xbd10f8a3	-0.03539337
165	0x3cba55c0	0.022745967
166	0x3e022e7a	0.12713042
167	0x3e998147	0.29981443
168	0x3dc69a09	0.096973486
169	0x3cc28567	0.023745252
170	0x3e4c1021	0.19928028
171	0x3e66f146	0.22552976
172	0xbd913a68	-0.07091218
173	0xbcd75c7a	-0.026289213
174	0x3e0b3ae4	0.13596684
175	0xbdc99a8d	-0.09843931
176	0x3da2c010	0.07946789
177	0xbc5a1bd2	-0.013312297
178	0xbdfb8e2b	-0.12282976
179	0x3df40982	0.11915876
180	0xbc5ad03f	-0.013355314
181	0x3d2215ba	0.0395715
182	0x3e994531	0.299356
183	0x3e4d9761	0.20077278
184	0x3e9731e9	0.29530266
185	0x3d9f35d4	0.07773939
186	0xbe68485a	-0.2268385
187	0xbe6bd364	-0.23029858
188	0xbea1b87a	-0.31586057
189	0xbeb5e5be	-0.35526842
190	0xbe030b34	-0.12797242
191	0xbe8b24f1	-0.27176622
192	0xbe1f4936	-0.15555272
193	0xbd588696	-0.052862726
194	0xbecf7723	-0.40520582
195	0xbec57816	-0.3856818
196	0xbcfb99b2	-0.030712936
197	0x3ed19d9e	0.40940565
198	0x3d76717c	0.06016682
199	0xbe5558b1	-0.20834614
200	0xbc99fd12	-0.018797431
201	0xbe8faf61	-0.2806349
202	0xbe841fc4	-0.25805485
203	0x3e9f65dd	0.31132403
204	0xbe19b83e	-0.15011689
205	0x3de3b8aa	0.11119206
206	0x3e92ae6b	0.28648695
207	0x3a9400f2	0.0011291786
208	0xbc907e81	-0.017638447
209	0xbd72bb6b	-0.059260767
210	0xbd4d1d00	-0.050076485
211	0x3dc14b53	0.09438195
212	0x3df4e6fb	0.119581185
213	0x3e30131b	0.17194788
214	0x3e09d323	0.13459449
215	0xbde6b44d	-0.112648584
216	0x3dbd2be5	0.09236888
217	0xbd220e70	-0.03956455
218	0xbddd315b	-0.108004294
219	0x3d7e6c1e	0.062114827
220	0xbe98c27f	-0.2983589
221	0x3dad0733	0.08448639
222	0x3cab9e3c	0.020949475
223	0xbe22dfb0	-0.15905643
224	0x3d4cc78b	0.049994987
225	0xbe29e2ed	-0.16590472
226	0xbe07626b	-0.13221137
227	0x3d15c807	0.036567714
228	0xbe45aac1	-0.19303419
229	0xbdd372db	-0.10324641
230	0xbcda2620	-0.026629508
231	0x3ddb9c22	0.10723139
232	0x3e6697ad	0.22518797
233	0x3df77510	0.12082875
234	0xbe2966ed	-0.1654317
235	0xbdd42fd5	-0.10360686
236	0x3e582357	0.21107231
237	0x3df7d5f0	0.12101352
238	0xbc9bc6aa	-0.019015629
239	0xbc92d1ba	-0.017922271
240	0xbe7c7747	-0.24654876
241	0xbdbddae6	-0.09270267
242	0x3e6de795	0.23232873
243	0xbdeef13e	-0.11667107
244	0x3d24967b	0.04018257
245	0xbe6075b1	-0.21919896
246	0xbe475b82	-0.19468501
247	0xbd232346	-0.03982856
248	0xbd6313cb	-0.055438798
249	0xbca25713	-0.01981691
250	0x3d463c62	0.04839743
251	0xbe84d568	-0.25944066
252	0x3db84ec3	0.089993976
253	0xbe4c2d37	-0.19939123
254	0xbd4332af	-0.047655758
255	0x3db12e31	0.086513884

shared_layer.res_blocks.0.fc1.bias f4 [17]
0	0x3e318ff6	0.17340073
1	0xbcda8132	-0.026672933
2	0x3d86a810	0.06575024
3	0xbe909e4a	-0.28245765
4	0xbdb9987e	-0.09062289
5	0x3c982290	0.018571168
6	0x3e17a865	0.14810331
7	0x3e0fdd4e	0.14049265
8	0xbe58f495	-0.2118705
9	0x3da2af4d	0.07943592
10	0xbdb86701	-0.090040214
11	0x3dcd46ab	0.100232445
12	0xbe99a85f	-0.3001127
13	0xbc3f506d	-0.01167689
14	0x3e5d205a	0.21594372
15	0x3d8926dc	0.06696865
16	0x3da0d98e	0.07853995

shared_layer.res_blocks.0.norm1.weight f4 [17]
0	0x3f87864a	1.0587857
1	0x3f7a1356	0.97685754
2	0x3f926f5e	1.1440237
3	0x3f8925d1	1.0714666
4	0x3f812382	1.0088961
5	0x3f787319	0.97050625
6	0x3f84b097	1.0366391
7	0x3f40c267	0.75296634
8	0x3f61283e	0.8795203
9	0x3f8a264a	1.0792935
10	0x3f841e8a	1.032182
11	0x3f9dcbc0	1.2327805
12	0x3f7fcf49	0.9992567
13	0x3f5f43c1	0.8721276
14	0x3f54b9e2	0.83096135
15	0x3f4ff343	0.8123056
16	0x3f8b68eb	1.0891393

shared_layer.res_blocks.0.norm1.bias f4 [17]
0	0x3dc5e7e7	0.096633725
1	0x3c4d7600	0.01254034
2	0xbe12bac5	-0.1432906
3	0xbd9f4984	-0.07777694
4	0xbd2355a4	-0.039876595
5	0xbdb62f9d	-0.088958
6	0xbde2bc2c	-0.11071047
7	0x3db36051	0.08758605
8	0xbc3489e7	-0.011019207
9	0xbdafaf63	-0.08578374
10	0xbc1fa6a7	-0.009744323
11	0x3e418252	0.1889737
12	0x3bbc719e	0.005750849
13	0xbbc98bbf	-0.0061506922
14	0x3d5d9eee	0.054106645
15	0x3da46ad9	0.08028192
16	0x3e20108c	0.15631312

shared_layer.res_blocks.0.fc2.weight f4 [17, 17]
0	0x3e2e9a52	0.17051056
1	0xbe4b1650	-0.1983273
2	0x3e195064	0.14972073
3	0xbe8239db	-0.25434765
4	0xbde07633	-0.10960045
5	0xbeb65371	-0.35610536
6	0xbe2d9004	-0.16949469
7	0xbd8a9dba	-0.06768365
8	0x3e9c647d	0.30545416
9	0xbc011b0a	-0.007879982
10	0x3deb7f9c	0.11498949
11	0x3e319d3c	0.17345136
12	0x3d8aaf2a	0.06771691
13	0x3e9879d9	0.29780462
14	0x3e141b68	0.1446358
15	0xbcfe7ae2	-0.031064454
16	0x3e042f6f	0.1290872
17	0x3e9babe5	0.30404583
18	0xbe739ed7	-0.23791061
19	0xbe8e6d4d	-0.27817765
20	0xbe9ea8e0	-0.30988216
21	0xbd8050fb	-0.06265446
22	0xbe9769ed	-0.29573002
23	0xbcb74499	-0.022371577
24	0xbd0a168e	-0.033712916
25	0xbe9fd308	-0.31215692
26	0x3cbfacf5	0.023397902
27	0xbe15f845	-0.14645489
28	0x3e70a5b9	0.23500718
29	0x3bae3e1a	0.0053174617
30	0xbe5bd744	-0.21468836
31	0x3e986366	0.29763335
32	0x3e41c925	0.18924387
33	0x3e39b6d0	0.18136144
34	0xbe98fa61	-0.29878524
35	0xbd011128	-0.031510502
36	0xbc9ca333	-0.019120788
37	0xbc2896c9	-0.010289856
38	0x3e03d520	0.1287427
39	0x3e4c34f7	0.1994208
40	0x3e974844	0.29547322
41	0xbd613d62	-0.05499018
42	0xbc50c7c4	-0.01274294
43	0x3e341755	0.17587025
44	0xbe11270e	-0.14175054
45	0xbe7b8c7e	-0.24565312
46	0xbd8f0993	-0.06984248
47	0x3dc01f81	0.09381009
48	0xbe301f72	-0.17199495
49	0xbe943af8	-0.2895124
50	0x3daac7f0	0.08338916
51	0x3d0c050c	0.0341845
52	0x3e943e85	0.2895395
53	0xbdd227fe	-0.10261534
54	0xbdb6755d	-0.08909104
55	0x3e60e3fe	0.21961972
56	0x3e0dc253	0.1384366
57	0x3e0d24d0	0.13783574
58	0x3df3a850	0.118973374
59	0x3b248ace	0.0025107148
60	0x3ea62227	0.3244793
61	0xbd8f488f	-0.06996261
62	0xbe22a07e	-0.15881535
63	0x3e764fe7	0.24053918
64	0xbe591fad	-0.2120349
65	0xbda8c7ad	-0.0824121
66	0x3e360635	0.17775805
67	0x3e020a62	0.12699273
68	0xbd3f6890	-0.046730578
69	0x3cd728eb	0.026264628
70	0x3db787c4	0.08961442
71	0x3ec5a323	0.38601026
72	0xbc84f82c	-0.016231619
73	0xbda486db	-0.08033534
74	0x3dbfeee4	0.09371737
75	0xbdca8870	-0.09889305
76	0x3e9426f8	0.2893598
77	0xbe0a997a	-0.13535109
78	0x3cd69423	0.026193684
79	0xbd7a6d7a	-0.06113956
80	0xbd212cb6	-0.03934928
81	0xbe771999	-0.24130858
82	0x3d5a622c	0.05331628
83	0x3e00d4aa	0.12581125
84	0xbe4ef28d	-0.20209713
85	0xbe519e8b	-0.20470636
86	0x3e8ae7c7	0.27129957
87	0x3df92f98	0.12167281
88	0x3dc7471b	0.09730359
89	0xbe050b66	-0.1299263
90	0xbdb2f57e	-0.0873823
91	0x3c7d2322	0.015450271
92	0xbb9717b3	-0.0046109795
93	0xbe2af820	-0.16696215
94	0x3e0d1d95	0.13780816
95	0x3e1e305b	0.15448134
96	0xbe08831f	-0.13331269
97	0x3d386919	0.045022104
98	0xbe37816f	-0.17920469
99	0x3db271c6	0.08713107
100	0xbbf9be58	-0.0076215677
101	0xbdc6fc37	-0.09716075
102	0xbe9fb141	-0.31189921
103	0x3e422eec	0.18963212
104	0x3e16c5d2	0.147239
105	0xbd0baeaa	-0.03410212
106	0x3ea7524e	0.3267998
107	0xbacb54f4	-0.0015512989
108	0x3e823a69	0.25435188
109	0x3e1d1521	0.15340091
110	0xbdf7118b	-0.12063893
111	0x3dcf6389	0.10126407
112	0xbe6d3bb4	-0.23167306
113	0xbe0b446d	-0.13600321
114	0x3d533d1b	0.051571947
115	0xbdb0f2c5	-0.086400546
116	0x3e24f6cf	0.16109775
117	0x3c952d86	0.018210184
118	0x3c941ee1	0.01808113
119	0xbea77ab1	-0.32710794
120	0x3e88f4b4	0.26749194
121	0x3d3ec6c8	0.04657629
122	0xbd883cee	-0.066522464
123	0x3e1989bc	0.14993948
124	0x3e49e1b1	0.19715
125	0x3ea3b332	0.31972653
126	0xbc29a1c2	-0.0103535075
127	0xbcc45e21	-0.023970665
128	0x3cd6aaa0	0.026204407
129	0x3e1fc886	0.15603837
130	0xbd664ad0	-0.05622369
131	0x3e87c8c5	0.26520362
132	0xbe3f4038	-0.18676841
133	0x3d51ab24	0.051188603
134	0x3dd8b98e	0.10582267
135	0xbdb9edeb	-0.090785824
136	0x3bfef292	0.0077803815
137	0x3e663116	0.22479662
138	0x3ead3250	0.33827448
139	0x3ce5afa7	0.02803786
140	0x3d05e89f	0.032692548
141	0x3d3afa0f	0.04564863
142	0x3e31c158	0.17358911
143	0x3e0d7a09	0.13816084
144	0xbabd7988	-0.0014455775
145	0x3e4d6dd9	0.20061435
146	0x3d153af8	0.03643319
147	0x3d435461	0.047687892
148	0x3e0dedd6	0.13860258
149	0xbe912372	-0.28347355
150	0xbea013e9	-0.3126519
151	0xbe20845a	-0.15675488
152	0x3b88e2b6	0.0041774167
153	0xbe5a7873	-0.2133501
154	0x3dc6e5d3	0.09711804
155	0x3e2ab0d2	0.16669014
156	0xbcc69310	-0.024240047
157	0x3e54de0d	0.2078783
158	0xbde8c75e	-0.11366151
159	0xbde7d68d	-0.11320219
160	0xbde2cc68	-0.11074144
161	0xbb3e23a9	-0.0029012954
162	0xbdc64ac8	-0.09682232
163	0x3e168d5e	0.14702365
164	0xbdfe8ccf	-0.12429201
165	0x3e6c18fb	0.23056404
166	0x3de803c7	0.113288455
167	0x3b97188b	0.00461108
168	0xbe1306b6	-0.14358029
169	0xbe2c123f	-0.16803835
170	0x3da3424a	0.07971628
171	0xbde2cb44	-0.11073926
172	0x3e007c41	0.12547399
173	0x3e20b43a	0.15693751
174	0x3dcb0e07	0.09914785
175	0x3e97469a	0.29546052
176	0x3e7f38e1	0.24924041
177	0x3d3aab6b	0.045573633
178	0xbe2275c7	-0.15865241
179	0x3e969571	0.2941089
180	0xbc133b3c	-0.008986291
181	0xbe52aea1	-0.20574428
182	0x3e502126	0.20325145
183	0x3e3975d1	0.1811135
184	0x3db67c47	0.08910423
185	0xbd51ac84	-0.051189914
186	0xbeb09970	-0.34492064
187	0xbcd3167a	-0.025767554
188	0x3e2cf5e0	0.16890669
189	0x3c651d11	0.013983981
190	0xbbb3b89b	-0.005484653
191	0xbdbe8fdc	-0.09304783
192	0xbdb79020	-0.089630365
193	0x3d60d472	0.054890104
194	0xbdc99025	-0.098419465
195	0xbb193871	-0.002337959
196	0xbce3198d	-0.027722144
197	0x3d2de597	0.042455282
198	0x3e92ccd3	0.28671893
199	0x3bb11888	0.0054045357
200	0x3de1ab30	0.110189795
201	0x3e12df08	0.14342892
202	0x3e31d550	0.17366529
203	0x3ee676f7	0.45012638
204	0xbe050629	-0.12990631
205	0xbd402bf0	-0.046916902
206	0x3e35aaba	0.17740908
207	0x3de97b57	0.11400478
208	0xbbd8a542	-0.006611497
209	0x3d712795	0.05887564
210	0x3ddf140b	0.10892495
211	0x3e84f861	0.25970748
212	0xbcab06b5	-0.020877222
213	0x3d6443a6	0.055728577
214	0x3db623e1	0.08893562
215	0xbe0942a8	-0.13404334
216	0xbc3a4e6c	-0.011371236
217	0x3e471b39	0.19443978
218	0x3e159289	0.1460668
219	0x3c085874	0.00832187
220	0xbdb6c2de	-0.08923887
221	0xbb7ff619	-0.0039056598
222	0x3e35a2fe	0.17737958
223	0xbe553612	-0.20821407
224	0x3d4af24a	0.04954747
225	0x3c9cec93	0.019155776
226	0x3d3599c7	0.044336107
227	0xbdf8e61e	-0.12153266
228	0x3dc4b0ac	0.0960401
229	0x3e2dc891	0.16971041
230	0x3e50f511	0.20405985
231	0x3eafa764	0.34307396
232	0xbe2db6ca	-0.1696426
233	0x3c6df5fb	0.014523978
234	0x3c0ceb57	0.008601031
235	0x3bdbc124	0.0067063738
236	0xbdfcfb7b	-0.123526536
237	0xbe4cc56f	-0.1999719
238	0x3d427c1e	0.04748165
239	0xbd5e1743	-0.054221403
240	0x3c403d4a	0.011733362
241	0x3e90c949	0.28278568
242	0x3cdd3011	0.027000459
243	0x3bd73188	0.006567184
244	0x3e21f5ab	0.15816371
245	0xbd2e2d2a	-0.04252354
246	0x3ddade85	0.106869735
247	0x3e526420	0.20546007
248	0xbcec080e	-0.028812435
249	0xbe82cc46	-0.25546473
250	0xbd25075f	-0.040290233
251	0x3c16df7d	0.009208557
252	0xbd86d582	-0.06583692
253	0xbd9c329c	-0.076268405
254	0x3d73ebbc	0.059550986
255	0x3e55f9dd	0.20896097

shared_layer.res_blocks.0.fc2.bias f4 [17]
0	0x3e0a23c8	0.13490212
1	0x3d19ea1c	0.03757678
2	0x3e1ee9dd	0.155189
3	0xbe001ade	-0.12510249
4	0xbe470180	-0.19434166
5	0x3e0c5a16	0.1370624
6	0x3de93d1e	0.1138861
7	0x3df6201e	0.120178446
8	0xbda83f43	-0.08215191
9	0xbe4b9af6	-0.19883332
10	0x3e002852	0.12515381
11	0x3e86eac9	0.26351002
12	0xbeaa2818	-0.33233714
13	0xbd56b53c	-0.052418932
14	0xbe85b465	-0.26114193
15	0x3e5d45fa	0.21608725
16	0x3d969c5e	0.073540434

shared_layer.res_blocks.0.norm2.weight f4 [17]
0	0x3f541336	0.82841814
1	0x3f4f76fe	0.8104094
2	0x3f7afffc	0.9804685
3	0x3f8556b9	1.0417091
4	0x3f808a8e	1.0042284
5	0x3f6160b9	0.8803821
6	0x3f621c6e	0.8832463
7	0x3f6cd076	0.92505586
8	0x3f8da109	1.1064769
9	0x3f7dfa51	0.9921008
10	0x3f47bad9	0.7801948
11	0x3f6c2fe2	0.92260563
12	0x3f2f1024	0.68384004
13	0x3f620d01	0.8830109
14	0x3f721c26	0.945742
15	0x3f7350d8	0.9504523
16	0x3f846ef3	1.0346359

shared_layer.res_blocks.0.norm2.bias f4 [17]
0	0xbd60673a	-0.054785945
1	0xbda3a442	-0.07990314
2	0xbd6d7361	-0.057971362
3	0xbd43941c	-0.04774867
4	0xbdf5e63f	-0.120068066
5	0x3d80cd74	0.06289187
6	0x3c91838c	0.017762922
7	0xbd4f6257	-0.050630894
8	0xbe1b9a18	-0.15195501
9	0xbd2c5466	-0.042072676
10	0x3e1e73ca	0.15473858
11	0xbd15a3d5	-0.036533196
12	0x3dbce75f	0.09223818
13	0x3d3c6fd0	0.04600507
14	0x3d1a107d	0.03761338
15	0xbd29bb9c	-0.041438684
16	0xbdfbce4f	-0.122952096

shared_layer.res_blocks.1.fc1.weight f4 [17, 17]
0	0xbe1f954e	-0.15584299
1	0xbdce32f3	-0.100683115
2	0x3e430e0b	0.19048326
3	0xbd05ce02	-0.032667167
4	0xbe0209df	-0.12699078
5	0x3e0a8f2b	0.13531177
6	0x3bbfa4e0	0.005848512
7	0x3da7a5d2	0.081859246
8	0x3e19f91f	0.15036438
9	0x3d8492a8	0.06473285
10	0xbea1698e	-0.31525844
11	0x3cba214b	0.022720953
12	0xbdc83b37	-0.09776919
13	0xbd180c7a	-0.037121274
14	0x3e54c189	0.20776953
15	0xbe4996c6	-0.19686422
16	0xbd70f60b	-0.058828395
17	0xbe311675	-0.17293723
18	0xbd5d5b0c	-0.054041907
19	0xbd5aff1c	-0.053465948
20	0x3d28f7bc	0.041251883
21	0x3c7ce2b2	0.015434908
22	0xbdbd77b6	-0.09251349
23	0xbe694a31	-0.22782208
24	0x3cff7cf2	0.031187508
25	0x3db6b394	0.089209706
26	0x3e4e9cc6	0.20176992
27	0xbd72281d	-0.059120286
28	0xbd4fe231	-0.050752822
29	0x3e36f2db	0.1786608
30	0x3e22044c	0.15821952
31	0xbe1375a6	-0.14400348
32	0xbe59adb4	-0.21257669
33	0xbe97eb51	-0.2967172
34	0xbe12ce5e	-0.14336535
35	0x3d989792	0.07450785
36	0x3d3294bb	0.04359887
37	0x3e366209	0.17810835
38	0xbb07d8de	-0.0020728628
39	0x3d19b129	0.03752247
40	0xbde66bd0	-0.11251032
41	0x3e6dfeb8	0.23241699
42	0xbd12364f	-0.035696324
43	0x3d3c3893	0.04595239
44	0xbe210aaf	-0.15726732
45	0xbdb82ade	-0.08992551
46	0x3e2438b8	0.16037261
47	0x3e2f915f	0.17145298
48	0xbd617f41	-0.055053
49	0xbd753e73	-0.05987401
50	0xbdf2fc67	-0.11864548
51	0xbec7cb6f	-0.39022395
52	0x3dadd2bb	0.08487459
53	0x3d4e4125	0.050355095
54	0x3e119c1c	0.14219707
55	0xbe1c76ca	-0.1527969
56	0xbe93c2ea	-0.28859645
57	0xbc3f374c	-0.011670899
58	0x3e06ecaf	0.13176225
59	0x3bacf54d	0.0052782656
60	0xbdf0d5fa	-0.11759563
61	0x3eacc76a	0.3374589
62	0xbd290e05	-0.041273136
63	0x3e08d26b	0.13361518
64	0xbe0a74b8	-0.13521087
65	0x3e7af8c6	0.24508962
66	0xbc6bccac	-0.014392059
67	0x3cac487e	0.02103066
68	0xbcf8081e	-0.030277308
69	0x3ceada6f	0.02866861
70	0xbe9ae589	-0.30253246
71	0xbe9c7af3	-0.30562553
72	0x3e1c53c4	0.15266329
73	0x3d8394ed	0.0642489
74	0x3ea66ebb	0.32506356
75	0xbe62926b	-0.22126167
76	0xbcc63931	-0.024197193
77	0xbe6949d2	-0.22782066
78	0x3dc34e5e	0.09536432
79	0x3e81c2e6	0.25344008
80	0x3e6cd1e6	0.23126945
81	0x3dbe53e0	0.09293342
82	0x3db07125	0.086153306
83	0x3de47c4c	0.1115652
84	0x3e0eb577	0.13936411
85	0xbe84ad1f	-0.2591333
86	0x3e69a45f	0.22816609
87	0xbd205537	-0.039143767
88	0x3d2231c4	0.03959824
89	0xbe0be4e4	-0.13661534
90	0x3c923d1a	0.017851401
91	0xbe1faf07	-0.15594111
92	0xbd48d0de	-0.049027316
93	0xbd870a55	-0.065937676
94	0xbe7c6bae	-0.24650452
95	0x3db35725	0.08756856
96	0x3d827c1f	0.063713305
97	0x3da69b66	0.08135109
98	0x3d838791	0.064223416
99	0xbd971659	-0.07377309
100	0xbed1034e	-0.40822834
101	0x3d106b73	0.03525872
102	0x3e1b1f59	0.15148677
103	0xbdfe27f3	-0.124099635
104	0x3dccdab3	0.10002651
105	0x3e4991da	0.19684544
106	0x3c8d5315	0.01725153
107	0xbd80a37d	-0.06281183
108	0x3e129bbd	0.14317222
109	0x3d8791ee	0.06619631
110	0x3e3e554b	0.18587224
111	0xbd918fdc	-0.07107517
112	0x3d58ef24	0.052962437
113	0xbe8952cb	-0.2682098
114	0x3e95df24	0.29271805
115	0xbc8b60c1	-0.01701391
116	0x3e6922d8	0.22767198
117	0xbd2b7c6c	-0.041866705
118	0xbcf854cf	-0.030313877
119	0x3d673222	0.056444295
120	0x3da2bc31	0.07946051
121	0xbdc0e5a1	-0.09418798
122	0xbe3345ef	-0.17507146
123	0xbc6cd761	-0.014455647
124	0xbcbb00ec	-0.022827588
125	0x3d8c69d9	0.06856126
126	0x3d255471	0.040363733
127	0xbd4e472e	-0.05036085
128	0x3e63a6d8	0.22231615
129	0x3e0aaccc	0.1354248
130	0x3d493c12	0.049129553
131	0xbe695faf	-0.22790407
132	0xbe15e68c	-0.14638728
133	0x3d4f0965	0.05054607
134	0xbe9b307e	-0.30310434
135	0x3e63ed19	0.22258414
136	0xbead8f21	-0.3389826
137	0x3e34eb3b	0.17667858
138	0x3e860f15	0.26183382
139	0x3e1f47f6	0.15554795
140	0x3d0c321b	0.03422747
141	0xbe16855f	-0.14699315
142	0x3e2dad29	0.16960587
143	0xbd12312b	-0.03569142
144	0xbe10eb61	-0.1415229
145	0x3e95ce8c	0.29259145
146	0xbe142393	-0.14466695
147	0xbde58957	-0.11207836
148	0x3e83c134	0.2573334
149	0xbdc57105	-0.096406974
150	0xbda5c5c3	-0.08094361
151	0xbd08e1f2	-0.033418603
152	0xbe010b53	-0.12601976
153	0xbcc8580f	-0.024456052
154	0xbe4aa0ec	-0.1978795
155	0x3d270b21	0.040782098
156	0xbc62581d	-0.013814953
157	0xbe087b9c	-0.13328403
158	0xbdf61a85	-0.12016777
159	0x3d716076	0.058929883
160	0x3dfe396a	0.124132946
161	0xbdbc3c56	-0.09191196
162	0x3e678a76	0.22611412
163	0x3e21c167	0.15796433
164	0xbd7041ec	-0.058656618
165	0xbe088bbd	-0.13334556
166	0x3ddf7768	0.10911447
167	0x3e678b18	0.22611654
168	0x3d840783	0.06446745
169	0xbe8e839c	-0.27834785
170	0x3e31adf4	0.17351514
171	0xbbea5cce	-0.0071521765
172	0x3e246a4e	0.16056177
173	0x3e696a3d	0.22794433
174	0x3e04f898	0.12985456
175	0xbe767c1d	-0.24070783
176	0x3e1a1f5a	0.15051022
177	0xbe508abf	-0.20365427
178	0xbd1e69a6	-0.038674973
179	0xbe0a1e22	-0.13488057
180	0x3cb71290	0.022347718
181	0xbbcaaf51	-0.00618545
182	0x3cb9cc15	0.022680322
183	0xbd75427d	-0.05987786
184	0x3c034b37	0.008013538
185	0x3e5273c2	0.2055197
186	0x3e8f3da5	0.2797672
187	0x3d72b395	0.059253294
188	0xbccc7fa7	-0.024963213
189	0x3e9c909b	0.30579075
190	0x3d51c327	0.051211502
191	0x3cd1c332	0.025605772
192	0x3e6e0a62	0.23246148
193	0xbe732b14	-0.23746902
194	0xbdd330be	-0.10312031
195	0x3cf77cbb	0.030210843
196	0x3d83a540	0.06428003
197	0xbd32b664	-0.043630973
198	0xbd8ae572	-0.067820445
199	0x3e2c53d4	0.16828853
200	0x3e7b8dd4	0.24565822
201	0x3c8f9cf1	0.01753089
202	0x3da3fe1a	0.080074504
203	0x3dbc96c1	0.092084415
204	0xbbbaca06	-0.0057003526
205	0xbdab94c2	-0.08377983
206	0xbebf2167	-0.3733017
207	0xbe8b0b02	-0.27156836
208	0xbdeef966	-0.11668663
209	0xbdba8c4c	-0.09108791
210	0xbc9362e2	-0.017991487
211	0xbe8cfff3	-0.27539024
212	0xbe773cdd	-0.24144311
213	0xbe950228	-0.29103208
214	0x3e8d8812	0.27642876
215	0x3df82bed	0.12117753
216	0xbe866869	-0.26251534
217	0xbd8cf247	-0.06882148
218	0xbe66a3fa	-0.2252349
219	0x3ead10c8	0.33801866
220	0x3e80931a	0.2511223
221	0x3df3ee12	0.11910643
222	0xbe1fec0e	-0.15617391
223	0x3e67e199	0.22644652
224	0x3e7f73f7	0.24946581
225	0xbe299eb0	-0.1656444
226	0x3e966a3e	0.2937793
227	0x3ddc54b2	0.10758342
228	0x3dcccf28	0.100004494
229	0x3e5a1220	0.21295977
230	0x3b6002b6	0.0034181303
231	0xbe0ce72b	-0.13760059
232	0xbd44e87d	-0.04807328
233	0x3e22b87a	0.15890685
234	0xbde1a49f	-0.11017727
235	0x3e59ce04	0.21269995
236	0xbe55ba57	-0.20871864
237	0x3e2ab7fa	0.16671744
238	0x3eba9ea1	0.3644915
239	0x3dce9b5b	0.100882255
240	0xbe8ad8c6	-0.2711851
241	0x3c41c4f0	0.011826739
242	0x3e0589d5	0.1304086
243	0x3d4f1dd9	0.050565574
244	0x3e008918	0.12552297
245	0x3dd82a1f	0.10554909
246	0xbe14cc6d	-0.14531107
247	0xbe344c61	-0.17607261
248	0xbbacf555	-0.0052782693
249	0x3e02aa4b	0.12760274
250	0x3d3bf7b8	0.04589054
251	0xbe4fe3ce	-0.20301744
252	0xbe29f4c6	-0.1659728
253	0x3e214a93	0.15751104
254	0xbc6dcc48	-0.0145140365
255	0x3e5c5576	0.21516976

shared_layer.res_blocks.1.fc1.bias f4 [17]
0	0xbcdcd38d	-0.026956344
1	0xbcc47411	-0.023981126
2	0xbe869a92	-0.26289803
3	0xbd5f9d36	-0.054593287
4	0x3dc06dbb	0.093959294
5	0xbe2ba350	-0.16761518
6	0xbe87ddff	-0.26536557
7	0x3e41038c	0.1884901
8	0x3d9cc58e	0.07654868
9	0xbea4d110	-0.32190752
10	0x3d8e211a	0.06939907
11	0x39360fe4	0.00017362792
12	0x3ed11a13	0.40840206
13	0x3d0bff26	0.034178875
14	0x3e9e4e7f	0.30919263
15	0xbd8773cc	-0.066138834
16	0x3e3c06a7	0.18361913

shared_layer.res_blocks.1.norm1.weight f4 [17]
0	0x3f6a796e	0.91591537
1	0x3f5fa438	0.8735995
2	0x3f5b14f3	0.8557884
3	0x3f50050e	0.8125771
4	0x3f845e89	1.034135
5	0x3f68795f	0.908102
6	0x3f95a110	1.1689777
7	0x3f62664f	0.8843736
8	0x3f5664f9	0.8374782
9	0x3f90c83d	1.1311108
10	0x3f59fbef	0.85150045
11	0x3f4769ca	0.77895796
12	0x3f98692b	1.1907095
13	0x3f79d52f	0.9759092
14	0x3f8bc3aa	1.0919087
15	0x3f612def	0.87960714
16	0x3f59cff3	0.8508293

shared_layer.res_blocks.1.norm1.bias f4 [17]
0	0x3da422c6	0.08014445
1	0x3d8c0df5	0.068385996
2	0x3e1434b8	0.14473236
3	0x3dfda932	0.12385787
4	0x3df4b2d6	0.11948173
5	0x3c1e565b	0.009664143
6	0xbe2912e3	-0.16511111
7	0xbd5ffd1d	-0.054684747
8	0x3d27a0ff	0.040925022
9	0xbe163de8	-0.14672053
10	0x3dad45fc	0.08460614
11	0x3dc6d4f6	0.09708588
12	0x3e6cc516	0.23122057
13	0x3cf8816a	0.030335147
14	0x3e1ec575	0.15505011
15	0x3e0228dc	0.12710899
16	0x3d9818e5	0.07426623

shared_layer.res_blocks.1.fc2.weight f4 [17, 17]
0	0x3e62cfbc	0.22149557
1	0xbe75391e	-0.2394757
2	0xbe3c4058	-0.1838392
3	0x3cd80823	0.026371067
4	0x3d60e0c8	0.054901868
5	0xbd152a3f	-0.036417242
6	0x3dbf4f0d	0.093412496
7	0x3e3f3cc9	0.18675531
8	0x3e0d6cbf	0.13811015
9	0xbe0c89ab	-0.13724391
10	0xbd53148f	-0.051533278
11	0x3e834ece	0.2564606
12	0xbe71bb20	-0.23606539
13	0x3d45ad49	0.04826096
14	0xbddced79	-0.10787482
15	0x3c9212f5	0.017831305
16	0x3ea13076	0.31482285
17	0xbc35b6e0	-0.011090964
18	0xbdbf2bdc	-0.093345374
19	0x3e1e50fe	0.15460584
20	0xbe0fa683	-0.14028363
21	0xbda90bb8	-0.08254188
22	0x3d499d0f	0.04922205
23	0xbe92b3b8	-0.2865274
24	0x3ea4780c	0.32122838
25	0xbe02e1be	-0.12781426
26	0x3d785728	0.060629994
27	0xbd4c7159	-0.049912784
28	0xbd37e28e	-0.044893794
29	0xbe617c09	-0.22019972
30	0xbe902f3a	-0.2816103
31	0x3e11c1d1	0.14234091
32	0x3e953a47	0.29146025
33	0xbddb8528	-0.10718757
34	0x3d5cad96	0.053876482
35	0xbdec5a09	-0.1154061
36	0x3a46a079	0.0007577013
37	0x3e79b0fd	0.24383922
38	0x3e1f4216	0.15552554
39	0xbe630b27	-0.22172223
40	0x3e3d2e29	0.1847464
41	0x3d38c116	0.045106016
42	0x3d164277	0.03668448
43	0x3ee5cf90	0.4488492
44	0x3e059325	0.13044412
45	0xbdd7e006	-0.10540776
46	0xbe8099a1	-0.2511721
47	0xbb390ad3	-0.0028235212
48	0x3d5b2e35	0.053510863
49	0xbda3f23b	-0.08005186
50	0x3af77bf3	0.0018881544
51	0xbdf1e016	-0.11810319
52	0x3dc6ffcb	0.097167574
53	0xbe4345ad	-0.19069548
54	0xbd9300d2	-0.07177891
55	0xbc9345f3	-0.01797769
56	0xbd827940	-0.06370783
57	0x3e231572	0.1592615
58	0x3be4cc94	0.0069823954
59	0x3e52b12f	0.20575403
60	0x3d6cb118	0.057786077
61	0xbe1a5d59	-0.15074672
62	0x3d851a29	0.0649913
63	0x3c43804d	0.011932445
64	0xbd5c6f60	-0.053817153
65	0xbe409074	-0.18805104
66	0x3da90d87	0.08254533
67	0xbe88f68e	-0.26750606
68	0x3e151078	0.14557064
69	0x3e118008	0.14208996
70	0xbdf31e67	-0.11871033
71	0xbde76d2e	-0.11300121
72	0xbe3c25fc	-0.18373865
73	0x3e442f53	0.19158678
74	0x3e9a710d	0.30164376
75	0xbd20e2e2	-0.039278872
76	0x3e6be8dc	0.23038048
77	0x3d1b510b	0.037919085
78	0xbe7d5d1c	-0.2474255
79	0x3e3109be	0.17288873
80	0xbc1aaed6	-0.009441098
81	0x3e968a48	0.29402375
82	0xbd1ee447	-0.03879192
83	0x3dfe508f	0.12417709
84	0x3d9aa56d	0.07551084
85	0x3badfdd1	0.0053097983
86	0xbec982d2	-0.3935762
87	0x3d45721f	0.048204537
88	0xbe99cf64	-0.3004104
89	0x3eb3b0ea	0.35095912
90	0xbe475a9e	-0.19468161
91	0xbebff028	-0.37487912
92	0xbbe3117a	-0.0069295736
93	0xbe041752	-0.12899521
94	0xbe8df131	-0.27723077
95	0x3e0a36a1	0.13497402
96	0xbbb1972a	-0.0054196315
97	0x3eb1be72	0.3471561
98	0xbe6638b5	-0.2248257
99	0x3ea9ea23	0.33186445
100	0x3da3d198	0.07998961
101	0x3dd04a4f	0.10170423
102	0x3dfd86c8	0.12379223
103	0xbdab8bda	-0.08376284
104	0xbdf0bac0	-0.1175437
105	0xbd9b5e45	-0.0758634
106	0xbe43ee0c	-0.19133776
107	0xbc6cdbab	-0.01445667
108	0x3cb7a23b	0.022416225
109	0xbe4fe1a9	-0.20300926
110	0xbe2fe10b	-0.17175691
111	0xbd80f5b6	-0.06296866
112	0xbdde0c28	-0.10842162
113	0xbda7edec	-0.08199677
114	0xbdd08b3e	-0.10182808
115	0x3c5dc36c	0.013535362
116	0xbccefa63	-0.025265878
117	0xbd2e3594	-0.042531565
118	0xbe6ad0ac	-0.22931165
119	0x3c58de8a	0.013236651
120	0x3d9dd204	0.07706073
121	0xbd7f0461	-0.062260035
122	0x3db3ad1b	0.087732516
123	0xbde3e039	-0.111267515
124	0x3e36edfb	0.1786422
125	0x3e159558	0.14607751
126	0x3dee140f	0.116249196
127	0x3bfb066e	0.0076606786
128	0xbe348f10	-0.17632699
129	0x3b9858f0	0.004649274
130	0xbd8e0948	-0.06935364
131	0xbdcd27b7	-0.10017341
132	0x3c030d20	0.007998735
133	0xbe43a900	-0.19107437
134	0xbd91ee83	-0.071255706
135	0x3decc702	0.11561395
136	0x3e6d05ce	0.23146746
137	0x3d9fe559	0.078074165
138	0x3ea0e47b	0.31424317
139	0xbdd1f4e8	-0.1025179
140	0xbda24f5a	-0.07925291
141	0x3db93573	0.09043398
142	0x3e87a08f	0.26489684
143	0xbdf33ae8	-0.1187647
144	0x3c430790	0.0119036585
145	0xbcd4a72b	-0.025958618
146	0xbd8a65ae	-0.06757675
147	0x3d2645a0	0.040593743
148	0xbe371858	-0.1788038
149	0xbdef5388	-0.11685854
150	0xbe3ba68f	-0.18325256
151	0x3d0121c4	0.031526342
152	0x3d9af2e8	0.07565862
153	0xbdfb5de4	-0.122737676
154	0xbd4cc287	-0.049990203
155	0x3db983b6	0.09058325
156	0xbdccd446	-0.100014254
157	0x3d01fa93	0.031733107
158	0x3e68cf46	0.22735319
159	0x3e17fae1	0.14841796
160	0xbdc55eb3	-0.09637203
161	0xbc855736	-0.016276937
162	0x3dd19b03	0.10234644
163	0x3e00c773	0.12576084
164	0xbd4dc86d	-0.05023997
165	0xbdefdb8d	-0.11711798
166	0x3e586838	0.21133506
167	0xbd8b5640	-0.0680356
168	0xbe1ea15b	-0.1549124
169	0xbe259484	-0.16169935
170	0xbe995df5	-0.29954496
171	0x3d92127f	0.07132434
172	0xbe2ad621	-0.16683246
173	0xbcbd8231	-0.02313337
174	0x3ea29b3e	0.31759065
175	0xbd8ccc58	-0.06874913
176	0xbddb7b1f	-0.10716843
177	0xbd316bcb	-0.04331569
178	0x3db2c148	0.08728272
179	0xbeb0c972	-0.3452869
180	0x3e690993	0.22757559
181	0xbdbdfb89	-0.09276492
182	0x3e8267c6	0.25469798
183	0xbe1fb847	-0.1559764
184	0x3dbbaa19	0.09163303
185	0x3daeaec7	0.0852943
186	0x3e4ebd90	0.201895
187	0xbd855681	-0.0651064
188	0xbdd3ec7e	-0.10347842
189	0x3d185ad0	0.03719598
190	0x3d697608	0.05699733
191	0x3c0b4d55	0.008502324
192	0x3e37ee63	0.17962031
193	0x3d72887d	0.059212197
194	0x3df48e75	0.11941234
195	0xbc93daf4	-0.01804874
196	0xbd225672	-0.039633222
197	0xbe0e088a	-0.13870445
198	0xbd8415a1	-0.06449438
199	0xbe5a74a0	-0.21333551
200	0xbe0bcb12	-0.13651684
201	0xbecea412	-0.4035955
202	0xbcc7f947	-0.024410857
203	0xbc9f0753	-0.019412672
204	0x3dc3ba3c	0.09557006
205	0x3cb6985d	0.02228945
206	0xbe009271	-0.12555863
207	0xbdc30fce	-0.09524499
208	0x3bc75b0a	0.0060838507
209	0xbc25ba79	-0.010115259
210	0xbec3466f	-0.38139674
211	0x3e23583c	0.15951627
212	0xbccbc910	-0.024876148
213	0xbc8b80b4	-0.017029144
214	0x3e01ae8d	0.12664242
215	0xbe27971d	-0.16366239
216	0x3eb03303	0.3441392
217	0xbc2143cd	-0.009842825
218	0x3e7a3729	0.24435104
219	0x3e10fb24	0.14158303
220	0x3e673adc	0.22581047
221	0x3e951190	0.29114962
222	0x3e04e22a	0.129769
223	0x3e8dcae3	0.27693853
224	0x3dc9b03e	0.09848069
225	0x3cdb51d2	0.026772413
226	0x3d26e5a9	0.040746365
227	0x3e990cfc	0.2989272
228	0x3e37e72e	0.17959282
229	0x3e2c36d0	0.16817784
230	0x3c6054f3	0.0136921285
231	0x3d979536	0.074015066
232	0x3d916706	0.07099728
233	0xbcf2a17c	-0.029618017
234	0x3d93c959	0.072161384
235	0x3dca5a17	0.098804645
236	0x3cadf1f0	0.021233529
237	0xbd095053	-0.03352387
238	0x3d9e07f8	0.07716364
239	0x3d83fc03	0.06444552
240	0xbd8ed222	-0.069736734
241	0x3d6e05f9	0.058111165
242	0xbde6f0df	-0.11276411
243	0xbda956b5	-0.08268491
244	0x3b99fee6	0.0046995757
245	0xbd5d12e9	-0.053973112
246	0x3e362359	0.17786922
247	0x3d849198	0.06473082
248	0x3e0ff69a	0.14058915
249	0x3da9705b	0.08273383
250	0x3b4385d0	0.0029834397
251	0x3e199a39	0.15000238
252	0xbc17c5d7	-0.009263477
253	0xbe838acf	-0.2569184
254	0xbe698b70	-0.22807097
255	0xbdef056d	-0.11670957

shared_layer.res_blocks.1.fc2.bias f4 [17]
0	0xbc52af61	-0.012859196
1	0x3e54469e	0.20730063
2	0x3a825d68	0.000994605
3	0xba1eb07d	-0.00060535205
4	0xbcd803a5	-0.026368925
5	0x3eb60942	0.35553938
6	0xbe43d4db	-0.19124167
7	0x3d4e4510	0.050358832
8	0xbd67fa27	-0.05663505
9	0xbe897d9b	-0.26853642
10	0x3e80de54	0.25169623
11	0xbe743746	-0.2384921
12	0x3d810366	0.06299476
13	0xbe6fc119	-0.23413505
14	0xbe885c95	-0.26633134
15	0x3ea51fd0	0.32250834
16	0xbe98f8d5	-0.29877344

shared_layer.res_blocks.1.norm2.weight f4 [17]
0	0x3f2eafaf	0.6823682
1	0x3f3a9af8	0.72892714
2	0x3f73bca9	0.9520975
3	0x3f49af62	0.7878324
4	0x3f8af50b	1.0856031
5	0x3f73d7c1	0.9525109
6	0x3f86432e	1.0489252
7	0x3f635f36	0.88817155
8	0x3f8142d7	1.0098523
9	0x3f83888a	1.0276043
10	0x3f604ac9	0.87614113
11	0x3f543769	0.8289705
12	0x3f282df1	0.656951
13	0x3f72f4f0	0.94904995
14	0x3f6d95b6	0.92806566
15	0x3f66c48e	0.9014367
16	0x3f92a9cc	1.1458068

shared_layer.res_blocks.1.norm2.bias f4 [17]
0	0x3b0303b5	0.0019991223
1	0x3d844fda	0.06460543
2	0x3b64727b	0.0034858275
3	0x3dc9b1da	0.098483756
4	0xbde9277a	-0.11384483
5	0xbce2fe7e	-0.027709242
6	0xbd654ee1	-0.055983428
7	0xbaed07cd	-0.001808399
8	0xbcf0e68f	-0.029406814
9	0xbdaff90e	-0.08592425
10	0xbbd1c07c	-0.0064011198
11	0xbd9c3294	-0.076268345
12	0x3d3e6ead	0.046492267
13	0x3c6cfefc	0.01446509
14	0x3ce3ab3a	0.027791608
15	0xbd3a8b5e	-0.045543067
16	0xbe02b3ce	-0.12763903

hazard_layer.weight f4 [10, 33]
0	0x3d6a54e1	0.057209853
1	0xbe5157d8	-0.20443666
2	0x3e5c4ca8	0.21513617
3	0x3e3b9e6c	0.18322152
4	0x3e765731	0.24056698
5	0xbe34f5df	-0.17671917
6	0x3d9a7fc8	0.075439036
7	0x3e09bde9	0.13451351
8	0x3eb0b7b3	0.3451515
9	0x3e70b929	0.23508133
10	0xbe50785c	-0.20358413
11	0xbe8460e1	-0.25855163
12	0xbdad0541	-0.08448268
13	0x3eb4c57e	0.35306925
14	0x3d7a0e91	0.061049048
15	0xbe5c5cff	-0.2151985
16	0xbe28c2cb	-0.16480558
17	0x3d938e41	0.07204867
18	0xbeb4b18e	-0.35291713
19	0xbe8b3675	-0.27189985
20	0xbe8f8dd7	-0.28037903
21	0xbde951b6	-0.11392538
22	0xbd211886	-0.039330028
23	0xbdfe2c2b	-0.12410768
24	0xbe8ccaa2	-0.27498347
25	0xbe1d62db	-0.15369742
26	0xbe8b420c	-0.27198827
27	0x3e2b2019	0.16711463
28	0xbf0797b7	-0.52965873
29	0xbe8ba65d	-0.27275363
30	0xbe3d7160	-0.1850028
31	0xbea6dbbb	-0.32589516
32	0x3e1938ab	0.14963023
33	0xbd8d16f6	-0.06889145
34	0xbcffdcba	-0.03123318
35	0xbd3ec59d	-0.046575177
36	0x3da223b8	0.07916969
37	0x3e3f3bb5	0.1867512
38	0x3c34afd0	0.011028245
39	0xbc4c36b1	-0.012464211
40	0x3db3f57e	0.08787058
41	0x3e083e21	0.1330495
42	0x3dc4bae6	0.096059605
43	0xbdfb6315	-0.12274758
44	0xbdff3e9d	-0.124631144
45	0x3dab2438	0.083565176
46	0xbd3bd2d2	-0.04585535
47	0x3d0e388d	0.0347219
48	0xbe056377	-0.13026224
49	0xbdcec675	-0.100964464
50	0x3e00ba16	0.12570986
51	0xbea32e7e	-0.31871408
52	0x3d292319	0.041293237
53	0xbd682c61	-0.056682948
54	0xbe1a16e1	-0.1504779
55	0x3e94cfbd	0.29064742
56	0xbebf69c4	-0.3738538
57	0xbe001f6b	-0.12511985
58	0xbeb4f8f7	-0.35346195
59	0x3cfb9fbc	0.030715816
60	0x3eb2d34a	0.34926826
61	0xbec786d0	-0.3897004
62	0xbe932d15	-0.28745332
63	0xbe43ed29	-0.19133438
64	0xbe3dcf88	-0.18536198
65	0x3dc9f46f	0.09861075
66	0x3d53588d	0.05159812
67	0x3b3a6c5d	0.0028445937
68	0x3d87594d	0.0660883
69	0xbb51d662	-0.0032018651
70	0x3df5bff3	0.11999502
71	0xbda4f3b0	-0.08054292
72	0x3cca4721	0.02469212
73	0x3e23dcab	0.16002147
74	0x3e8c894a	0.27448493
75	0x3e019a90	0.12656617
76	0xbe3f27ce	-0.18667528
77	0x3d59b4a4	0.053150788
78	0xbd00d54d	-0.03145342
79	0x3d25797e	0.040399067
80	0x3c8a92d5	0.016915718
81	0x3d555771	0.052085344
82	0x3cd518a4	0.026012726
83	0x3e4229ea	0.18961301
84	0xbea519db	-0.3224629
85	0xbcf0087c	-0.02930092
86	0xbe1ac9ba	-0.15116015
87	0xbe2eaedf	-0.17058896
88	0x3e27ac78	0.16374385
89	0xbea8a225	-0.32936206
90	0xbe55bf6a	-0.208738
91	0xbe29460a	-0.16530624
92	0x3d97c4a4	0.07410553
93	0x3e65d4fc	0.22444528
94	0xbecce534	-0.40018618
95	0xbe494841	-0.19656469
96	0xbcb6da62	-0.02232093
97	0xbdc81b2d	-0.09770808
98	0x3e05621b	0.13025706
99	0xbd83e60e	-0.06440364
100	0x3c9c0b89	0.01904847
101	0x3e94cf08	0.29064202
102	0x3baa773f	0.0052022035
103	0x3e0e2041	0.13879491
104	0x3d202403	0.039096843
105	0x3de99806	0.11405949
106	0x3d2278c9	0.03966597
107	0x3e3ab8ec	0.18234605
108	0x3e69402d	0.22778387
109	0xbb2bc9d7	-0.0026212835
110	0x3d87e570	0.066355586
111	0xbcfe8629	-0.031069832
112	0x3e24313a	0.16034403
113	0x3e2a795c	0.16647857
114	0xbe2eb66f	-0.1706178
115	0x3c01f0f6	0.007930985
116	0x3da339a9	0.07969982
117	0xbe968659	-0.29399374
118	0x3cc45dd1	0.023970516
119	0xbe15526e	-0.14582226
120	0x3c1db24b	0.009625028
121	0xbd82999a	-0.063769534
122	0xbeb05eef	-0.3444743
123	0xbe5bcdc5	-0.21465214
124	0xbe210e01	-0.15727998
125	0x3d5e605b	0.05429111
126	0x3e364b65	0.17802198
127	0xbe8c210b	-0.2736896
128	0xbea346ee	-0.31890053
129	0xbd22b2ce	-0.039721303
130	0xbd22946a	-0.03969232
131	0x3e0ac9ff	0.13553618
132	0xbcf19390	-0.029489309
133	0x3c016a47	0.007898874
134	0x3dce4fc8	0.10073811
135	0x3dcdae53	0.10043015
136	0x3d42add0	0.04752904
137	0xbd9a50c1	-0.07534934
138	0x3d861f82	0.065489784
139	0x3dc29bf1	0.095024
140	0x3e861c68	0.26193547
141	0xbc0d5489	-0.008626112
142	0x3bf0cc1c	0.0073485505
143	0x3cba16bd	0.02271592
144	0x3d5d9691	0.05409867
145	0x3dfcf0e8	0.12350637
146	0x3e209c4f	0.15684627
147	0xbcd9c6c5	-0.026584039
148	0xbd00254b	-0.031285565
149	0x3ed0d477	0.40787098
150	0xbea5b42f	-0.32364032
151	0x3e0bd1d2	0.13654259
152	0xbd7c39e2	-0.06157864
153	0x3d44a562	0.048009284
154	0x3e3fa0f9	0.1871375
155	0xbd8d84eb	-0.06910118
156	0xbe2e37e6	-0.17013511
157	0xbe33ebc2	-0.17570403
158	0x3dcc4885	0.099747695
159	0x3e81cd97	0.25352165
160	0xbeb7075f	-0.3574781
161	0xbe721cb5	-0.23643763
162	0x3ce79d5b	0.028273275
163	0xbe5a7aa9	-0.21335854
164	0x3e2e3f7b	0.17016403
165	0x3d04ca0e	0.032419257
166	0xbc890a53	-0.016728556
167	0x3e810a57	0.252032
168	0x3e49a14e	0.19690439
169	0x3da86f79	0.08224387
170	0xbe04a97e	-0.12955281
171	0xbdedd563	-0.11612966
172	0x3dfb66dc	0.12275478
173	0x3e709e58	0.23497903
174	0x3e11b50f	0.14229225
175	0xbd9eab11	-0.07747472
176	0xbe38beeb	-0.1804158
177	0x3c9fa4ed	0.019487822
178	0x3bee05de	0.007263883
179	0x3e32666d	0.17421885
180	0xbdab6630	-0.083691
181	0xbe740cae	-0.23832962
182	0x3e1b88c1	0.15188886
183	0xbec3ed67	-0.3826706
184	0xbcc25045	-0.023719916
185	0xbe130500	-0.14357376
186	0xbcd0c491	-0.025484355
187	0xbd87c54c	-0.06629428
188	0xbeaf83e3	-0.3428031
189	0xbe3d3dce	-0.18480608
190	0xbe7d036b	-0.24708335
191	0xbe562c48	-0.2091533
192	0x3e8369a5	0.25666538
193	0xbe83bdc4	-0.25730717
194	0xbe2d56b9	-0.16927613
195	0x3d938ce8	0.0720461
196	0xbe2e814a	-0.17041507
197	0x3dddcf50	0.10830557
198	0x3c2b8384	0.0104683675
199	0xbd58a3db	-0.05289064
200	0xbd635854	-0.05550416
201	0x3e18a390	0.14906144
202	0x3d8f96f7	0.07011216
203	0xbd6cb2ba	-0.057787634
204	0xbd65a7b7	-0.05606815
205	0x3bff9e5a	0.0078008594
206	0x3e62ca06	0.22147378
207	0x3e346bb4	0.1761921
208	0xbde84911	-0.11342061
209	0xbdaae8bf	-0.08345174
210	0xbd9fe57c	-0.078074425
211	0x3c4032c0	0.01173085
212	0x3e1ddbf5	0.15415938
213	0xbc8356fa	-0.016032685
214	0xbd963268	-0.07333833
215	0x3e9a7cdf	0.30173394
216	0xbee212f2	-0.4415508
217	0x3d0a1f51	0.033721272
218	0xbd5a7019	-0.05332956
219	0xbda9dc8d	-0.0829402
220	0x3eb4452a	0.35209018
221	0xbe2cf25f	-0.16889332
222	0xbe534dcf	-0.2063515
223	0xbd7398e9	-0.059472
224	0x3bc68d4d	0.006059325
225	0x3e9dbee0	0.3080969
226	0xbe654cdf	-0.22392605
227	0xbe38f5ad	-0.18062468
228	0x3ccba63c	0.02485954
229	0xbd8a2441	-0.06745196
230	0x3dcc930d	0.09988985
231	0x3d1d8189	0.038453612
232	0xbd3b420e	-0.04571729
233	0x3e487fb3	0.19579963
234	0x3d9aa19c	0.07550356
235	0x3da8f75c	0.08250305
236	0xbc9b9f13	-0.018996751
237	0x3e045e33	0.12926559
238	0x3c78f6b8	0.015195541
239	0x3e3549aa	0.17703882
240	0x3e4a5899	0.1976036
241	0xbd816b63	-0.063193105
242	0xbe43102d	-0.1904914
243	0xbdf9b093	-0.12191882
244	0x3e1f9369	0.15583576
245	0x3e01d8d6	0.12680373
246	0xbceaad74	-0.028647162
247	0xbd1f3e8d	-0.038878012
248	0x3e1023a6	0.14076099
249	0xbe8a9354	-0.27065527
250	0xbca10ed0	-0.019660383
251	0xbcf178ba	-0.029476512
252	0xbc8afea5	-0.016967127
253	0x3e744eeb	0.2385823
254	0xbdcd75a1	-0.100322016
255	0xbe89dcb0	-0.26926184
